mobilenet/contraction_1x1_2_bias.npy (npy, 640 bytes, 1 tensors)

array f4 [128]
-1.2509978 1.90885 5.3435287 -2.0570269 -13.767693 9.877615 -12.924235 12.233206
4.492548 -13.867365 -1.8931514 -0.99959695 -3.0539403 1.9764086 -3.3092911 0.5431028
-4.852277 6.1277733 4.290709 3.8369703 -1.8794875 -10.024065 3.3202343 0.18579078
0.76213497 4.966216 -0.10877681 -1.9139433 0.025226235 -2.847921 2.437763 0.42856956
2.7664933 2.0603104 -6.320034 2.2537131 3.0192645 2.7384372 7.0602417 2.4390485
3.2839527 0.15440273 0.030959904 -0.21035433 -0.43732977 -4.815104 -0.14949799 -14.241741
-2.4978223 -6.084863 -6.989385 -6.970393 -0.76858497 -6.123773 3.1180153 2.7358024
4.063506 0.028316975 0.33615828 -6.445369 -10.69187 3.1446724 -5.2745643 3.0508897
8.445734 -8.820672 -0.5280788 1.253505 8.133768 0.9323407 -6.0250344 -15.326168
-4.083531 4.6264315 1.436703 12.104671 2.466453 4.5739145 -0.8048566 -3.7498417
1.3871274 0.17372417 -6.4203315 -1.8907483 -10.798018 -2.75919 -0.30021328 -7.8621163
4.160396 0.13866568 -3.7743134 -15.755863 -5.0462623 5.995753 -8.860392 -4.1420794
5.1356416 -3.7210279 -1.661553 -1.7268951 -0.7310706 -0.27553108 -15.433714 12.300898
-9.765189 -10.3484955 7.183435 1.4870113 0.55342656 -7.0120554 2.4282928 2.3363876
0.973873 -4.0340967 -0.09697258 4.299247 -4.0266123 -9.220547 -5.7165775 3.0823846
-5.0459385 0.18943167 10.259704 2.230524 2.3660822 -8.126308 -7.1819005 -0.8449831
00000000: b220 a0bf 3255 f43f 30fe aa40 54a6 03c0
00000010: 7848 5cc1 b60a 1e41 abc9 4ec1 36bb 4341
00000020: f4c2 8f40 bae0 5dc1 c952 f2bf 96e5 7fbf
00000030: c273 43c0 f5fa fc3f 6dcb 53c0 c908 0b3f
00000040: da45 9bc0 b816 c440 7d4d 8940 ec90 7540
00000050: 0c93 f0bf 9262 20c1 b87e 5440 f03f 3e3e
00000060: 471b 433f 3eeb 9e40 60c6 debd 18fc f4bf
00000070: 40a7 ce3c 5644 36c0 4f04 1c40 786d db3e
00000080: 3a0e 3140 20dc 0340 b83d cac0 d63c 1040
00000090: a13b 4140 8e42 2f40 80ed e140 5f19 1c40
000000a0: 482c 5240 c01b 1e3e a09f fd3c 2067 57be
000000b0: b0e9 dfbe 5515 9ac0 0016 19be 2cde 63c1
000000c0: 52dc 1fc0 33b7 c2c0 0ba9 dfc0 760d dfc0
000000d0: fcc1 44bf f3f5 c3c0 908d 4740 6317 2f40
000000e0: 3e08 8240 00f9 e73c f01c ac3e 7640 cec0
000000f0: e611 2bc1 5042 4940 3bc9 a8c0 c741 4340
00000100: ba21 0741 7921 0dc1 2c30 07bf da72 a03f
00000110: ea23 0241 e1ad 6e3f 15cd c0c0 fc37 75c1
00000120: 49ac 82c0 ba0b 9440 e2e5 b73f bbac 4141
00000130: 5eda 1d40 825d 9240 150b 4ebf 68fd 6fc0
00000140: 648d b13f c0e4 313e 5b73 cdc0 0a04 f2bf
00000150: afc4 2cc1 9296 30c0 8eb5 99be 7596 fbc0
00000160: f721 8540 60fe 0d3e 5a8e 71c0 0418 7cc1
00000170: fb7a a1c0 35dd bf40 2ac4 0dc1 ea8b 84c0
00000180: 2d57 a440 5225 6ec0 c5ad d4bf e60a ddbf
00000190: 7127 3bbf 6912 8dbe 7ef0 76c1 7ad0 4441
000001a0: 373e 1cc1 7093 25c1 b3de e540 6356 be3f
000001b0: 5dad 0d3f c262 e0c0 2669 1b40 6087 1540
000001c0: be4f 793f 5217 81c0 8f99 c6bd 6e93 8940
000001d0: 02da 80c0 5c87 13c1 34ee b6c0 ca45 4540
000001e0: 5478 a1c0 60fa 413e bf27 2441 e8c0 0e40
000001f0: e46d 1740 5c05 02c1 21d2 e5c0 d050 58bf
