mobilenet/contraction_1x1_9_bias.npy (npy, 2176 bytes, 1 tensors)

array f4 [512]
000000 c0 6b a9 bf 11 9e 40 c0 16 04 81 be 6e 52 09 c0
       -1.3236008 -3.0096476 -0.2519843 -2.145656
000010 28 36 c8 c0 d2 de 59 c0 9c f1 e8 c0 7c ca fd bf
       -6.256611 -3.4042249 -7.2794933 -1.9827418
000020 a4 8e a8 be 96 9d 98 3e b7 99 82 3f fc 72 06 c0
       -0.32921326 0.2980773 1.020316 -2.100768
000030 51 67 12 bf 52 e2 1f 40 94 f2 81 c0 8e b3 15 bf
       -0.571889 2.4981885 -4.0608616 -0.58477104
000040 91 e3 a4 bf ca 1b 20 c0 66 c3 c2 bf 66 17 c5 3f
       -1.2881948 -2.501696 -1.5215881 1.5397766
000050 6a 94 2b c0 33 4e ee c0 8a 14 4f c0 c9 f4 41 c0
       -2.6809335 -7.447046 -3.2356286 -3.0305655
000060 5c 47 4b 40 dd ad 00 40 88 43 83 40 49 de 48 bf
       3.1762304 2.0106118 4.1019936 -0.7846418
000070 dc c7 ff bf e7 e9 0a 40 e1 05 45 3f e4 17 0b bf
       -1.9982867 2.1705263 0.76962095 -0.5433333
000080 40 6e 7c 3d 88 0e 9a bd a8 f1 96 40 ef 0a d1 bf
       0.06162858 -0.07522303 4.716999 -1.6331462
000090 19 31 d5 bf 8a 9e 88 40 3e 4f 4b c0 2f dd 24 3f
       -1.6655608 4.269353 -3.1767116 0.644
0000a0 90 03 8a bd f7 07 70 c0 1e 85 e6 c0 68 19 5b c0
       -0.06738961 -3.7504861 -7.2037497 -3.4234257
0000b0 79 c0 4a 40 b2 00 c4 3f 9c b3 1a c0 e6 15 6f 3f
       3.1679976 1.5312712 -2.4172125 0.9339279
0000c0 05 1e bf 40 a1 c0 00 40 55 55 4f c0 bf 23 b0 3f
       5.9724145 2.0117571 -3.2395833 1.3760909
0000d0 50 78 ab c0 ab 4d 4c 3f 9c 59 99 3e 71 0c 3a c0
       -5.3584366 0.7980601 0.2995118 -2.9070094
0000e0 0f d4 f5 bf b9 ed 32 c0 97 7c 4c 3f e2 12 e7 3f
       -1.920534 -2.7957594 0.7987761 1.8052638
0000f0 80 bd a6 be c1 63 13 c1 fe c9 9e c0 5a 0d c2 bf
       -0.32566452 -9.211854 -4.9621572 -1.5160325
000100 37 c9 a8 c0 0a cd ee c0 43 2a 02 c1 0c 4b 8e c0
       -5.2745624 -7.462529 -8.135318 -4.446661
000110 85 f9 90 40 ac fb 09 bf e6 1c 97 bf 7a 0a 17 c0
       4.530459 -0.53899646 -1.1805694 -2.3600144
000120 43 db 25 3f e0 61 a3 be c0 30 fa bf c9 a7 f6 bf
       0.6478769 -0.3191061 -1.9546127 -1.9269954
000130 27 7e 57 bf 6c 70 90 3f 74 bc 42 3f 6d 2d 94 3e
       -0.8417687 1.1284308 0.76068807 0.28940907
000140 fc f5 7a 3f c8 5b d3 c0 0a 8d 8e c0 e6 28 79 3f
       0.9803159 -6.604954 -4.4547167 0.9732803
000150 f2 ea 1d c0 99 1c 26 3f 86 6f 3f c0 b1 4e 83 3f
       -2.467465 0.64887387 -2.9911819 1.025839
000160 32 3c c5 3e 6c 93 e7 c0 36 ce 31 c0 7c 52 6d c0
       0.38522488 -7.236746 -2.778211 -3.7081594
000170 3a da 15 c0 a6 87 2f 40 7c c2 0a 3f c7 a2 9b bf
       -2.3414445 2.7426543 0.5420301 -1.2159051
000180 b4 3e 8c 3f 6f e0 0b 40 d4 ec 99 bf 55 07 e8 bf
       1.0956635 2.1855733 -1.2025399 -1.8127238
000190 28 05 11 40 a9 c9 8c c0 32 72 11 3f b5 09 0b 40
       2.2659397 -4.3996167 0.56814873 2.1724675
0001a0 c2 01 b6 c0 e8 f7 1c 3e be b3 b4 bf 0b 38 2f c0
       -5.6877146 0.15328944 -1.4117353 -2.7377956
0001b0 e2 b0 4c c0 8e 88 15 c1 28 81 0f c0 82 4c 98 c0
       -3.198296 -9.345839 -2.242258 -4.7593393
0001c0 22 d7 8d bf e8 40 61 3f d4 5b e7 c0 64 bf c4 be
       -1.1081278 0.87989664 -7.2299595 -0.3842727
0001d0 86 de fc 3f 30 65 1a 3e 8d ee 0d 40 42 d6 13 c0
       1.9755409 0.15077662 2.217685 -2.3099523
0001e0 2e b4 43 3e 88 87 74 c0 c0 f4 a0 3d de 21 ec 3e
       0.19111702 -3.8207722 0.07859182 0.4611959
0001f0 c0 90 9f bc f2 1c ef be ba 03 b4 c0 80 a1 1f c0
       -0.019478202 -0.4670177 -5.625455 -2.4942322
000200 7d 12 1a c1 66 ed be 3e ab 02 a4 bc e3 99 bd c0
       -9.629514 0.37290496 -0.020020803 -5.925035
000210 d5 7f f5 c0 04 c6 de 3f 60 2e bb bc b3 dc e6 3f
       -7.6718545 1.740418 -0.022849262 1.8036102
000220 db c4 86 40 04 d9 27 40 af 7b f5 bf ab fd 62 c0
       4.21153 2.6226206 -1.917837 -3.5467327
000230 28 ca 88 3f 47 56 32 c0 a5 41 0f c0 98 7e 82 3f
       1.0686693 -2.786516 -2.2383816 1.0194883
000240 38 dd 4b be ec 27 2a 40 f0 65 41 3e 7e 96 25 c0
       -0.19908607 2.6586866 0.18886542 -2.5873103
000250 de 83 63 40 e8 27 4c be bc 27 ef c0 0c 69 2c c0
       3.5549235 -0.19937098 -7.4736004 -2.6939116
000260 63 14 0a 3f de 2c 7c c0 b8 38 aa 3f a3 06 df c0
       0.5393736 -3.9402385 1.3298559 -6.96956
000270 6c 11 3c c0 e6 05 82 c0 93 22 09 40 d4 da 05 bf
       -2.9385633 -4.06322 2.1427352 -0.5228703
000280 0c 1e 9e 3e ca b6 f3 bf 08 ca 12 40 5f d4 e6 bf
       0.308823 -1.9040158 2.293581 -1.803356
000290 94 9d cb 3f 45 50 7f c0 89 2e ad c0 ec b6 2c c0
       1.5907464 -3.9892743 -5.4119306 -2.6986647
0002a0 eb cb 2f 40 f4 8e 93 be a0 df 16 bd 5c 46 81 c0
       2.7468212 -0.28820002 -0.03683436 -4.039839
0002b0 db 6f d1 3e 60 80 47 c0 02 b2 54 c0 18 1a 1b c0
       0.4090565 -3.1172104 -3.3233647 -2.4234676
0002c0 fd 90 b3 c0 8c ca 90 3e a8 9f 06 c1 c4 92 b3 c0
       -5.611449 0.2827953 -8.413979 -5.6116657
0002d0 18 87 9a 40 59 7a 50 c0 ca b7 6d c0 1f a0 c5 3f
       4.828991 -3.2574675 -3.7143426 1.543949
0002e0 f2 70 c4 be 19 26 aa be 0b 21 a9 bf a4 ca 6b 3f
       -0.3836742 -0.3323219 -1.3213209 0.9210608
0002f0 9a 39 8f 3f d6 08 04 40 a2 9f 0b 3f 89 67 a9 c0
       1.1189454 2.0630393 0.54540455 -5.2938886
000300 54 c2 9d c0 82 25 0c 40 84 eb e2 c0 09 46 77 c0
       -4.9299717 2.1897893 -7.0912495 -3.8636496
000310 ae 7c 90 c0 ff 01 76 3f d8 e1 2d 40 60 7e 35 40
       -4.5152197 0.96096796 2.7169094 2.8358383
000320 d0 a9 e9 bf 48 52 a7 bf 6a 6e 24 3c e0 33 69 bc
       -1.8254948 -1.3071985 0.01003609 -0.014233559
000330 14 75 8b c0 26 ff 1d 3f d9 a8 a9 bf af 23 8c be
       -4.358042 0.6171745 -1.3254653 -0.27370974
000340 5a 60 83 c0 7d 57 78 bf b8 ff 27 c0 7f 20 77 c0
       -4.1055117 -0.97008497 -2.6249828 -3.8613584
000350 58 42 f7 c0 a4 e3 05 40 ee 5b 97 3e 0e 2f ba 3f
       -7.7268486 2.092019 0.29562324 1.454561
000360 cf d8 a8 c0 d5 3f ec 3f 24 72 4f c0 2b f5 f6 bf
       -5.276466 1.845698 -3.2413416 -1.9293569
000370 c2 8e 11 3f 07 65 13 bf 86 c0 a8 c0 56 27 a3 be
       0.56858456 -0.5757603 -5.2735014 -0.31865948
000380 ac 3e 22 3f e9 84 83 40 02 d8 8f c0 2e c6 a8 c0
       0.6337688 4.1099744 -4.495118 -5.274192
000390 cf f3 03 c0 6d 52 c7 3f cf fe 09 40 46 f0 c4 be
       -2.061756 1.5572029 2.1561773 -0.38464564
0003a0 6b 10 59 3f 24 4a be c0 ba 53 8d bf 27 02 8a 3f
       0.84790677 -5.9465504 -1.1041176 1.0781907
0003b0 7a ed 22 be 2e 7e b4 bf 7a cb cf 3f 5e 56 95 3f
       -0.15910903 -1.4101007 1.6233971 1.1666982
0003c0 15 58 5b 40 e5 ff 70 40 82 21 eb 3f 06 63 c6 3f
       3.427251 3.7656186 1.8369601 1.549897
0003d0 bd 3c 80 c0 36 b3 ef bf 64 1d 31 bf 72 30 2c c0
       -4.0074143 -1.8726566 -0.6918547 -2.6904569
0003e0 44 b8 b0 c0 b9 28 2d c0 18 8b ab bf f3 10 26 bf
       -5.5224934 -2.7056105 -1.3401823 -0.6486961
0003f0 3c d0 c3 3f 7e 03 a6 c0 dc 2a 49 3f 85 d2 a8 c0
       1.5297923 -5.1879263 0.78581023 -5.275698
