mobilenet/contraction_1x1_1_bias.npy (npy, 640 bytes, 1 tensors)

array f4 [128]
0	0x407e935c	3.977744
1	0x40d0f976	6.530452
2	0x3f306e24	0.6891806
3	0x3ff7d46f	1.9361705
4	0xc06b4c24	-3.6765223
5	0x40acc7f6	5.3994093
6	0x4015fbce	2.343494
7	0x409f6d98	4.982128
8	0xbf732003	-0.9497072
9	0xbf5763cc	-0.8413665
10	0x412b7bbc	10.717709
11	0xbf32b793	-0.6981136
12	0x403ca0aa	2.9473062
13	0xbfcff198	-1.6245604
14	0x3d7a25c0	0.061071157
15	0xc02bd9e6	-2.6851745
16	0x403d0212	2.9532514
17	0x403a2885	2.908723
18	0x3f15f246	0.58572805
19	0x401d8237	2.4610727
20	0x40a4e6f0	5.1531906
21	0xc1acc961	-21.59833
22	0x40d89cb2	6.769128
23	0xbfb7ebfd	-1.4368893
24	0xc01c41d7	-2.4415185
25	0x4018e180	2.3887634
26	0x4087aaba	4.2395906
27	0x3fdee684	1.7414098
28	0x4080a6d2	4.020364
29	0x4053b18a	3.3077111
30	0x3fea7a6d	1.8318611
31	0xc05e3412	-3.4719281
32	0x3fb392fc	1.4029231
33	0x40006faa	2.0068154
34	0x3f6bff5f	0.9218654
35	0xc0c0ddf3	-6.0270934
36	0x405721b3	3.3614318
37	0x4033cfbb	2.8095539
38	0x4059d24e	3.403461
39	0x4101afda	8.1054325
40	0x407421c6	3.8145614
41	0xc0e5b0b4	-7.17782
42	0x3f8ad841	1.0847245
43	0x3fc271c1	1.5190965
44	0xbf96333a	-1.1734383
45	0x3d9b2eb0	0.07577264
46	0x40f5d269	7.681935
47	0x40800d9e	4.0016623
48	0x409860b4	4.7618046
49	0x4103f431	8.247117
50	0x412e4be6	10.89353
51	0x3fc3f1aa	1.5308125
52	0x40bee3a1	5.9652867
53	0x400e39d2	2.222279
54	0x41809374	16.071999
55	0x408cfd4c	4.40592
56	0x40625d3a	3.53694
57	0xc0c90b24	-6.28261
58	0x409763a4	4.730913
59	0x3f4cf474	0.80060506
60	0x408c6bbb	4.3881507
61	0x401405ec	2.3128614
62	0x4082552c	4.072897
63	0x408914da	4.2837954
64	0x404a612c	3.162181
65	0xc0254526	-2.5823455
66	0xc032aeb6	-2.7919135
67	0x3fde5b35	1.7371584
68	0x404bd43a	3.1848283
69	0xbe7f6d90	-0.24944139
70	0x3c6c7d00	0.014434099
71	0xc03c2995	-2.940038
72	0xc116a462	-9.4151325
73	0xc04ca124	-3.1973352
74	0xc0b5714d	-5.6700807
75	0xc0c9cd46	-6.306308
76	0x3feb81b7	1.8398961
77	0x3fd9e3d8	1.7022657
78	0x40abf1c6	5.3732634
79	0x40980872	4.751031
80	0x4131420a	11.078623
81	0xc005755b	-2.0852878
82	0x41019e95	8.101216
83	0x40cc10dc	6.377058
84	0x401399e6	2.3062682
85	0x401bd979	2.4351485
86	0x40a5288a	5.1611986
87	0x404ad3c4	3.1691751
88	0x3f00594c	0.50136256
89	0xbebe328c	-0.3714794
90	0x404dfd5a	3.2185884
91	0x41734aba	15.205744
92	0xc005ee9c	-2.0926886
93	0x4051a840	3.2758942
94	0xbfe00d20	-1.7504005
95	0x40a473ea	5.1391497
96	0x4066b589	3.60483
97	0xc0b71fd4	-5.7226353
98	0x4006b14f	2.104572
99	0x403779e2	2.8668141
100	0xbe2dc624	-0.16970116
101	0xbe6e6412	-0.23280361
102	0x4132583d	11.146543
103	0x411d3518	9.825462
104	0x403b489b	2.9263065
105	0x402d4079	2.70706
106	0x412d5950	10.834305
107	0x401357f2	2.3022428
108	0xbfa7f3be	-1.3121259
109	0x3f8399f6	1.028136
110	0x40924938	4.571438
111	0x40cd8d18	6.4234734
112	0xc160909d	-14.035306
113	0x3f94eebe	1.1635358
114	0x3de1fd40	0.11034632
115	0xc182279c	-16.26934
116	0x3fa3630a	1.2764599
117	0x40a37968	5.10857
118	0x40161b72	2.3454251
119	0x3ff62716	1.9230678
120	0x3f776e4c	0.96652675
121	0x3f8471b7	1.0347203
122	0x3ff11761	1.883526
123	0x3f4ffdaa	0.81246436
124	0x3fa42eb1	1.2826749
125	0x40607011	3.50684
126	0x4094c211	4.6486897
127	0xc0babba6	-5.8354063
