mobilenet/contraction_1x1_8_bias.npy (npy, 2176 bytes, 1 tensors)

array f4 [512]
0	0x3e8b8f94	0.2725798
1	0x3fc758f9	1.5574027
2	0xc098fc16	-4.780772
3	0x40260b09	2.5944235
4	0x3febf00a	1.8432629
5	0xc0475f9a	-3.11521
6	0xbf45bf40	-0.7724495
7	0x40ab4dda	5.3532534
8	0x3f2310e5	0.63697654
9	0xbfcec33a	-1.6153328
10	0x40488a7a	3.133452
11	0xc0b6782a	-5.7021685
12	0x403e0ae0	2.9694138
13	0xbfa81ab6	-1.3133152
14	0xc05d5ca2	-3.4587789
15	0xc082fbab	-4.093221
16	0x403768ba	2.865767
17	0xbfefe41a	-1.8741486
18	0x3f867f7a	1.0507653
19	0x3fa95367	1.3228577
20	0xbd421d30	-0.047391117
21	0x3f25d84e	0.6478318
22	0xbfc54c2b	-1.541387
23	0x3f382c9d	0.71943074
24	0x4089bd64	4.304369
25	0x408d6ae1	4.4192967
26	0xbf914ffd	-1.1352535
27	0x3fcd3dac	1.6034446
28	0xc0439667	-3.0560548
29	0xc0a93ac9	-5.288426
30	0x4048f1e2	3.1397634
31	0xbf1f4063	-0.6220762
32	0xc02385ec	-2.555049
33	0xbfd9554a	-1.6979153
34	0x3e2b5ce8	0.1673466
35	0xc00646c4	-2.0980692
36	0xc0bc7e4f	-5.8904185
37	0x3f52779a	0.8221375
38	0x3f2abb8e	0.66692436
39	0xbfdd5227	-1.7290696
40	0xbf9a8f07	-1.2074898
41	0xc0bbecc9	-5.8726544
42	0x400cf692	2.2025495
43	0x3dad9500	0.08475685
44	0x3ff5863c	1.918159
45	0xbfcf5652	-1.6198218
46	0xbedc00b4	-0.42969286
47	0xbf121e2c	-0.5707729
48	0x3f8cf79e	1.1013067
49	0xc0251311	-2.5792887
50	0x3e9f29d2	0.31086594
51	0xbf6799d2	-0.90469086
52	0xbf22e387	-0.6362843
53	0xc0ce4a3c	-6.446562
54	0x3e9f222a	0.31080753
55	0x3feff1b2	1.8745635
56	0xc00c1229	-2.1886084
57	0xc08de793	-4.4345183
58	0xc023d4f8	-2.5598736
59	0x4004e5d8	2.0765285
60	0x3f835dcd	1.0263001
61	0xbfb83d8a	-1.439378
62	0x3f921807	1.1413583
63	0x40207bf2	2.507565
64	0xbf1728a7	-0.59046406
65	0x4035e639	2.8421767
66	0x408da49f	4.4263453
67	0xbd687740	-0.05675435
68	0x3f5682e0	0.8379345
69	0x3e03dba8	0.12876761
70	0x3f9f8761	1.2463189
71	0x403bdc80	2.9353333
72	0x3fd527de	1.6652792
73	0xbec8c02a	-0.3920911
74	0x3f94555f	1.1588553
75	0xc0f0a0eb	-7.5196433
76	0xc04c72f0	-3.1945152
77	0xbfd99426	-1.6998336
78	0x3fa7a454	1.3097024
79	0x3f907d17	1.1288174
80	0xbf0cc941	-0.5499459
81	0xc0d27d2d	-6.5777802
82	0x3f64c202	0.8935853
83	0x40966afb	4.700559
84	0x3f466899	0.77503353
85	0xbefacdfe	-0.48985285
86	0x3f273e57	0.653295
87	0xc0336deb	-2.8035839
88	0x3f86a197	1.0518063
89	0x40aa8a82	5.3294077
90	0x3ff55486	1.916642
91	0x406f2aae	3.73698
92	0xbff6e614	-1.9288964
93	0xc05f7624	-3.4915857
94	0xbe4d4f50	-0.20049787
95	0x3ff85d3e	1.9403455
96	0x3f2b9f58	0.67040014
97	0x3fedb275	1.8570086
98	0xc0665ba0	-3.5993423
99	0xbd822330	-0.06354368
100	0x3ffdaa18	1.9817533
101	0xbff3de54	-1.9052224
102	0x3ffa6b50	1.9563999
103	0x408dce23	4.431413
104	0x402d8d3b	2.711745
105	0x3fca822a	1.5820973
106	0xbf1fd6a6	-0.624369
107	0xbcf6ee60	-0.030142963
108	0xc0a325ea	-5.098378
109	0xbdb1d0f0	-0.0868243
110	0x3e1bf788	0.15231144
111	0xbe8b6d02	-0.27231604
112	0x3ee1e130	0.44117117
113	0x3da8bb6c	0.08238873
114	0xbfff7dff	-1.9960326
115	0x3f9c7d72	1.2225783
116	0x4000eec1	2.0145724
117	0x40349511	2.8215983
118	0x3fdb2f3f	1.7123793
119	0x3f026cbe	0.5094718
120	0x4021d439	2.528578
121	0x3e97a173	0.29615363
122	0x3eadb254	0.33925116
123	0xbf1975c3	-0.59945315
124	0xbe180d64	-0.14848858
125	0x3e717b80	0.23582268
126	0x3f183d8a	0.594689
127	0xbfbae796	-1.4601924
128	0xc0188bac	-2.383525
129	0xc038c727	-2.8871553
130	0x3f7e0f90	0.99242496
131	0x3e8f3094	0.2796675
132	0x3e25d9bc	0.1619634
133	0x3eb9870a	0.3623584
134	0xbe4f7620	-0.20259905
135	0xbf99e972	-1.2024367
136	0xc094229a	-4.629224
137	0xbf65a985	-0.8971179
138	0xbf6dc1eb	-0.9287402
139	0x3c9a4f40	0.018836617
140	0x40498b76	3.149137
141	0x3fffda53	1.9988502
142	0xbf50c0ec	-0.81544375
143	0xc06385eb	-3.5550487
144	0xc0a6226c	-5.191702
145	0x3f68bbec	0.90911746
146	0xc007681c	-2.1157293
147	0x3fad12e9	1.3521396
148	0x4029c6df	2.6527631
149	0xc0443ebc	-3.066329
150	0x3f48f948	0.78505373
151	0xbf158744	-0.58409524
152	0x3e7ebd0c	0.24876803
153	0xc0836eca	-4.107274
154	0xc00f296c	-2.2369032
155	0xc05288b8	-3.2895947
156	0xc03f9e0e	-2.994022
157	0xbf5fdcd6	-0.87446344
158	0xbe3fbe60	-0.18724966
159	0x40022089	2.0332358
160	0x3f45014e	0.76955116
161	0xbe995f8c	-0.2995571
162	0x3f449c0f	0.76800627
163	0x40268501	2.601868
164	0x40122191	2.2832987
165	0xc09a7c4d	-4.8276734
166	0x3e0d3bd8	0.1379236
167	0xbe9b987d	-0.30389777
168	0xbfb07956	-1.3787029
169	0x3fbe6d60	1.4877129
170	0xc0cbfd40	-6.3746643
171	0xbf9d8896	-1.2307308
172	0x3ffe307a	1.9858544
173	0xc06f0ca9	-3.7351477
174	0x3cc16980	0.023609877
175	0x405b66d2	3.4281507
176	0x3ff01094	1.8755059
177	0x40c70b82	6.220155
178	0xbfddb2af	-1.7320155
179	0x3ff5a9da	1.919246
180	0x4081b590	4.0534134
181	0x40392dfc	2.8934317
182	0xc00b456c	-2.1761122
183	0xc0037953	-2.05428
184	0x3e490150	0.19629407
185	0x400548e2	2.0825734
186	0xbfcc6fec	-1.5971656
187	0x3f134cc2	0.57539
188	0x407f3429	3.9875586
189	0xc02dd7db	-2.7162998
190	0xbf790d0a	-0.9728552
191	0x3f40af27	0.7526726
192	0xbdefb500	-0.11704445
193	0xbf787a00	-0.9706116
194	0xbdc52590	-0.09626305
195	0xbf0a05de	-0.539152
196	0x3f9a5e66	1.2060058
197	0xbf32c133	-0.6982605
198	0xbf89d536	-1.0768192
199	0xc088a71c	-4.270399
200	0x40292e08	2.6434345
201	0xbd92197e	-0.071337685
202	0x3cba0bc0	0.022710681
203	0xbf940ae0	-1.1565819
204	0x3f8e125b	1.1099352
205	0x3e4880a4	0.19580323
206	0x4009cb41	2.1530306
207	0x3f4659e6	0.77480924
208	0x3fc7a18e	1.5596178
209	0x408230e2	4.068467
210	0xbfed7166	-1.8550231
211	0x3d44e290	0.04806763
212	0xbf086aea	-0.5328814
213	0x3fcb99c1	1.5906297
214	0x3f9851e2	1.1899989
215	0xbfa3474c	-1.2756133
216	0xbf96805e	-1.1757925
217	0xc03955c5	-2.89586
218	0xbd3b84b8	-0.045780867
219	0xbd1af1c0	-0.037828207
220	0xbfb8a58c	-1.4425521
221	0xc0ce0317	-6.437877
222	0xc01ae546	-2.4202437
223	0x404de792	3.217259
224	0xbf0899d6	-0.53359735
225	0x402dd9e4	2.716424
226	0x3f7aa967	0.9791474
227	0x3fcd0858	1.6018171
228	0x40df8f06	6.986209
229	0xc058d560	-3.3880234
230	0xbf19c66d	-0.600684
231	0x3ee55f10	0.4479909
232	0x4039ac6c	2.9011488
233	0x4023b97d	2.5581963
234	0xc01fad0f	-2.4949377
235	0xbf69206f	-0.91065115
236	0xc0201686	-2.5013747
237	0x3e3c9dc4	0.18419558
238	0xbfbd9b91	-1.48131
239	0xc00fe206	-2.2481704
240	0x4033146e	2.798122
241	0x40411abd	3.017257
242	0xbffc4e88	-1.9711466
243	0x4034af77	2.8232095
244	0xbed8593e	-0.42255586
245	0x3fb61646	1.4225547
246	0xbec015d0	-0.37516642
247	0xbf8a7ce5	-1.0819365
248	0xc0552b64	-3.3307734
249	0x3f93bf1e	1.1542699
250	0xc019a544	-2.400712
251	0xc00a665c	-2.1624975
252	0xbfed955e	-1.8561208
253	0x3eaffaf3	0.34371147
254	0x4051f1de	3.2803874
255	0xbf2795fc	-0.65463233
