mobilenet/contraction_1x1_10_bias.npy (npy, 2176 bytes, 1 tensors)

array f4 [512]
-0.69803 2.2959492 -1.7228276 -0.050873518 -1.484269 0.9277415 -5.9357963 3.1441088
-11.787962 3.2184942 -0.863821 -1.7481608 -2.0826008 -1.4222217 -0.034791574 -1.5667212
1.5992959 -4.3785586 1.5940095 0.63189256 0.082686 -6.900946 -2.5496693 -2.950814
0.53089964 -5.9883513 -0.32863474 0.6486174 1.1511536 -5.1791744 3.2393823 -2.8676724
-8.24312 -0.09524727 -1.8784919 -3.6104114 2.156547 1.5884978 -3.6676693 4.141961
2.1147108 0.30180806 1.675871 -4.4715424 -3.8209343 -4.169016 -3.00113 0.7297915
-3.3422642 2.0004354 -2.0090957 -2.9728842 -5.351473 1.7489599 -2.3725438 3.5922794
4.999358 -3.7670183 -0.83333623 -0.8154373 2.665323 0.5333953 -3.414665 0.46308887
-2.385387 -3.490952 1.5785346 0.4299984 -0.9133532 -0.57429916 3.040466 2.2426116
-0.37235892 -6.0032496 -2.9726138 4.752303 -2.9558687 -3.8367648 -1.9273328 1.4146065
-1.2907243 -1.5715718 -3.2930632 -3.4169383 6.0367284 2.2351623 0.6992266 -11.580883
-4.883445 -2.3120914 3.6150155 -2.5373263 -2.335618 1.5459026 1.26477 -3.917955
-1.9790022 -3.8392706 -1.0288577 1.4906963 -0.8042536 0.14074123 -0.64022684 -3.524704
-0.4914117 -3.3109126 3.2394364 3.95896 -0.6769059 0.32007703 4.6524224 -0.5826661
-5.3107414 -1.9536572 -4.1006064 2.1811314 -9.589074 -4.0951686 3.1854599 1.070752
-1.5815475 -3.2263627 2.0038323 0.7444835 2.1125677 2.1254256 -0.06788492 -2.931751
-5.138294 -1.5205923 -5.9199657 1.6414875 6.34825 -0.6593889 -1.1823432 -4.930338
-0.7584759 -4.171294 -1.176935 2.502036 3.3563943 1.4439406 0.70320225 -0.2071011
-4.984731 -0.88408047 -3.9328911 2.5911756 -1.1881564 1.2937721 -6.9061193 -7.419074
-1.646158 -0.44733846 -1.040405 -6.105769 -1.754048 -4.7660847 -1.1792436 3.7237155
-4.4282413 -2.852203 -3.6948426 2.7656739 -3.4822502 1.6787874 0.16402304 1.413579
2.5619042 -3.3725626 -1.983678 -0.026000857 -3.4156542 -3.462565 -9.947474 -2.1049688
-2.4557998 2.1259027 1.4298158 -3.732327 -1.0837474 -3.5438612 -5.73419 4.8181086
-0.80912066 -3.5240488 -2.0590923 0.121230245 5.385371 -3.3377247 -1.998637 -2.852805
-0.32213947 5.001764 1.2257731 3.4795127 -6.613235 -5.1932974 -4.5628667 3.0130966
0.13711435 -4.44638 1.1176288 -0.93228245 2.7300093 -8.024172 -1.1698089 4.763422
-4.2217736 -5.5735135 2.7269366 -2.264847 -5.426807 2.1550279 0.3660189 -4.9655695
0.76121277 -4.624858 -3.4497485 -4.8514013 1.056252 -7.1521807 2.2264838 -0.2486589
1.0699404 1.6247294 -3.274798 1.1826371 -3.717095 -4.195702 6.1552496 -2.868265
-4.5662956 -2.0169315 -3.9644752 2.3579106 0.25468773 -4.675465 1.732967 1.1830324
1.2180307 -4.5931797 2.4202967 -3.1561656 -2.243824 -2.4734824 0.09618187 0.27781343
-0.28943473 1.7254207 3.6825755 0.087939076 -1.9412884 1.9828994 2.231886 0.80969536
00000000: 18b2 32bf d5f0 1240 9d85 dcbf c060 50bd
00000010: 87fc bdbf 7880 6d3f 0bf2 bdc0 1439 4940
00000020: 7e9b 3cc1 cffb 4d40 6023 5dbf bcc3 dfbf
00000030: 5549 05c0 5c0b b6bf 9c81 0ebd 528a c8bf
00000040: bab5 cc3f 271d 8cc0 8108 cc3f b6c3 213f
00000050: 4757 a93d 8dd4 dcc0 c82d 23c0 23da 3cc0
00000060: 0ae9 073f 93a0 bfc0 d042 a8be ca0b 263f
00000070: 0059 933f ccbb a5c0 0a52 4f40 f287 37c0
00000080: d2e3 03c1 0011 c3bd 6c72 f0bf fb10 67c0
00000090: de04 0a40 e553 cb3f 18bb 6ac0 f28a 8440
000000a0: 6c57 0740 9686 9a3e f182 d63f e016 8fc0
000000b0: 308a 74c0 9468 85c0 8412 40c0 9ed3 3a3f
000000c0: a8e7 55c0 2207 0040 0695 00c0 bc43 3ec0
000000d0: 443f abc0 ebdd df3f c2d7 17c0 e8e7 6540
000000e0: befa 9f40 d416 71c0 8655 55bf 80c0 50bf
000000f0: a794 2a40 988c 083f df89 5ac0 fc19 ed3e
00000100: 2eaa 18c0 c26b 5fc0 6c0d ca3f c028 dc3e
00000110: 84d1 69bf 4505 13bf ff96 4240 f386 0f40
00000120: d4a5 bebe 9f1a c0c0 4e3f 3ec0 de12 9840
00000130: f42c 3dc0 8e8d 75c0 d7b2 f6bf d311 b53f
00000140: 7436 a5bf 4429 c9bf 8cc1 52c0 1eaf 5ac0
00000150: e12c c140 e60c 0f40 8400 333f 4c4b 39c1
00000160: 2e45 9cc0 4ef9 13c0 6a5c 6740 8e63 22c0
00000170: c47a 15c0 23e0 c53f fce3 a13f c6bf 7ac0
00000180: f24f fdbf 9cb6 75c0 9cb1 83bf 23cf be3f
00000190: 90e3 4dbf 781e 103e e8e5 23bf c094 61c0
000001a0: 509a fbbe fee5 53c0 ed52 4f40 9a5f 7d40
000001b0: b449 2dbf 23e1 a33e a5e0 9440 9b29 15bf
000001c0: 98f1 a9c0 7011 fabf 2b38 83c0 a897 0b40
000001d0: d96c 19c1 9f0b 83c0 93de 4b40 670e 893f
000001e0: 2670 cabf ba7c 4ec0 ca3e 0040 7896 3e3f
000001f0: 4f34 0740 f906 0840 4007 8bbd cfa1 3bc0
00000200: e86c a4c0 c5a2 c2bf 5c70 bdc0 431c d23f
00000210: dd24 cb40 b6cd 28bf 0657 97bf 54c5 9dc0
00000220: 7a2b 42bf 3e7b 85c0 cea5 96bf 5c21 2040
00000230: 2acf 5640 0cd3 b83f 1005 343f 5012 54be
00000240: eb82 9fc0 1953 62bf 7db4 7bc0 d2d5 2540
00000250: 8215 98bf 539a a53f eefe dcc0 0e69 edc0
00000260: 4eb5 d2bf 8c09 e5be fe2b 85bf 7662 c3c0
00000270: a584 e0bf c483 98c0 74f1 96bf 5b51 6e40
00000280: 27b4 8dc0 7e8a 36c0 4d78 6cc0 cd00 3140
00000290: 30dd 5ec0 81e2 d63f a8f5 273e 28f0 b43f
000002a0: 3df6 2340 11d8 57c0 29e9 fdbf c0ff d4bc
000002b0: 149a 5ac0 aa9a 5dc0 da28 1fc1 cfb7 06c0
000002c0: d32b 1dc0 ca0e 0840 3404 b73f 72de 6ec0
000002d0: 3cb8 8abf 9fce 62c0 7c7e b7c0 f22d 9a40
000002e0: 8822 4fbf 048a 61c0 2bc8 03c0 9047 f83d
000002f0: f654 ac40 489d 55c0 56d3 ffbf 5b94 36c0
00000300: 77ef a4be 730e a040 22e6 9c3f 56b0 5e40
00000310: 9f9f d3c0 7e2f a6c0 0103 92c0 93d6 4040
00000320: b467 0c3e bf48 8ec0 760e 8f3f 10aa 6ebf
00000330: 79b8 2e40 0263 00c1 4cbc 95bf f46d 9840
00000340: c518 87c0 395a b2c0 2186 2e40 41f3 10c0
00000350: 67a8 adc0 faeb 0940 d466 bb3e f2e5 9ec0
00000360: d7de 423f d6fe 93c0 aec8 5cc0 ae3e 9bc0
00000370: 4433 873f aade e4c0 b67e 0e40 70a0 7ebe
00000380: cff3 883f 22f7 cf3f 4a96 51c0 a760 973f
00000390: e2e4 6dc0 3143 86c0 cef7 c440 a791 37c0
000003a0: 181f 92c0 6815 01c0 f6b9 7dc0 02e8 1640
000003b0: 6e66 823e 699d 95c0 ddd1 dd3f 9b6d 973f
000003c0: 6ee8 9b3f 54fb 92c0 24e6 1a40 9efe 49c0
000003d0: d09a 0fc0 894d 1ec0 00fb c43d 903d 8e3e
000003e0: ca30 94be 96da dc3f 51af 6b40 6719 b43d
000003f0: 237c f8bf a6cf fd3f 38d7 0e40 3248 4f3f
