mobilenet/contraction_1x1_12_bias.npy (npy, 4224 bytes, 1 tensors)

array f4 [1024]
0	0x40b81c1a	5.7534304
1	0x416d15ad	14.817792
2	0x40152986	2.3306594
3	0xc055911c	-3.3369818
4	0xc0c5f4f5	-6.186152
5	0xc0670d02	-3.610169
6	0xc041ce0e	-3.0282016
7	0xc06c802c	-3.695323
8	0xbfcaddb0	-1.5848904
9	0x40a92ef2	5.2869806
10	0xbfdea848	-1.7395105
11	0x41b07494	22.056923
12	0xc02219bc	-2.5328207
13	0x40225485	2.5364087
14	0x40ea048e	7.313056
15	0x40a8da0f	5.2766185
16	0x40866dad	4.200888
17	0xc0f19750	-7.549721
18	0xc09c72d4	-4.889017
19	0xbfbc5bfe	-1.4715574
20	0x4190c64a	18.09682
21	0x412f3ad4	10.951862
22	0x415b9ba8	13.725502
23	0x408c544e	4.385291
24	0x4138485c	11.517666
25	0x40d2818d	6.5783143
26	0x3fb4d440	1.4127274
27	0x40c70498	6.2193108
28	0xbfc0a454	-1.5050149
29	0x408599e7	4.175037
30	0x415e6e82	13.901979
31	0x415285c4	13.157658
32	0x4114a390	9.289932
33	0xc125896c	-10.34605
34	0x4092d201	4.5881352
35	0x3f8a72a8	1.081624
36	0x40ed1130	7.408348
37	0x40ec4fca	7.38474
38	0xc0793ac3	-3.8942115
39	0x4107e54f	8.493484
40	0xc0a1531b	-5.0413947
41	0x3fe89e74	1.8173356
42	0x407deb00	3.9674683
43	0xc10ce436	-8.805716
44	0xbfaa2108	-1.329133
45	0xbebcfdf0	-0.3691249
46	0xc0c3f7fc	-6.1240215
47	0x40f7fb1b	7.7494025
48	0xc19caf22	-19.585514
49	0x3f8c99b0	1.0984402
50	0xc0d618d6	-6.6905317
51	0x3dabe7c0	0.08393812
52	0x4185a3f6	16.70506
53	0x412d0557	10.813804
54	0x413f6c66	11.963964
55	0xc02a0bb6	-2.6569648
56	0xc0c6e56b	-6.215505
57	0xc0b1bee7	-5.5545535
58	0x418e65a9	17.799639
59	0x4017a336	2.3693366
60	0x414df808	12.8730545
61	0xc0fdd2bb	-7.931974
62	0xc0be30b4	-5.943445
63	0x411b969d	9.724271
64	0xbfe3e778	-1.7805014
65	0xc08bab81	-4.3646855
66	0x408ad638	4.3386497
67	0x419a9171	19.321016
68	0x40439544	3.0559855
69	0xc1182d4a	-9.511057
70	0x40c03f9c	6.007765
71	0x414b9e62	12.726168
72	0x3e01bfa0	0.12670755
73	0x3f8036b4	1.0016694
74	0x40be3c2e	5.944846
75	0x3f6b5710	0.9192972
76	0x4139ef0d	11.620862
77	0xc0c257fb	-6.07324
78	0xc040fe7b	-3.0155323
79	0x41261daf	10.382247
80	0x403c11f8	2.9385967
81	0x41549455	13.286214
82	0xc0e889d2	-7.266824
83	0x41938f5a	18.444996
84	0x3fc6e2cc	1.5537963
85	0x413ea30c	11.914806
86	0xc11d0ba6	-9.815344
87	0x3f8475c8	1.0348444
88	0x4095c3f0	4.680168
89	0xc09b5866	-4.854541
90	0x4001f2ce	2.0304446
91	0xc1091be4	-8.569309
92	0xc090eb9c	-4.528761
93	0x40ce8e7e	6.454894
94	0x41198694	9.595356
95	0xc049cd00	-3.1531372
96	0x419ae16a	19.360065
97	0x40b1b6b8	5.5535545
98	0xc01d0038	-2.4531384
99	0x411ec099	9.922021
100	0xc11aafcc	-9.667919
101	0xc11a0421	-9.626008
102	0xc0bc45a1	-5.8834996
103	0x40a46424	5.137224
104	0x405a698c	3.412692
105	0x4184ffd6	16.62492
106	0x4043871c	3.0551214
107	0x41312335	11.071095
108	0xc0d4d2a0	-6.650711
109	0xbfb2508c	-1.3930831
110	0xc0afaae6	-5.4896116
111	0xc0187e4e	-2.382709
112	0x41241db0	10.257248
113	0x40818ff0	4.0488205
114	0xc1ed0621	-29.627993
115	0x3fab121c	1.3364902
116	0x4045c282	3.0899968
117	0xc10aec05	-8.682622
118	0xc112d2e5	-9.176488
119	0x41434a13	12.205585
120	0xc14e1f4e	-12.882643
121	0xc080c05f	-4.023483
122	0xc0c0e2d7	-6.0276904
123	0xbf72da88	-0.948647
124	0x40e3b0fb	7.115354
125	0xbfb5ca78	-1.4202414
126	0x410deaa9	8.86979
127	0x40da1bf6	6.815913
128	0xc08178ce	-4.0459967
129	0x4108574e	8.521315
130	0x412a104d	10.62898
131	0xc14a65c5	-12.649846
132	0xc0c81cdf	-6.2535243
133	0xc10009ec	-8.002422
134	0x40b0caac	5.52474
135	0xc1495744	-12.583805
136	0x4087c3f7	4.2426715
137	0x404f919c	3.2432623
138	0xbfab53a0	-1.3384895
139	0xc0a7878e	-5.235297
140	0xbf2b4f98	-0.66918325
141	0xc054f1d1	-3.3272593
142	0x4128c324	10.547642
143	0xc108122c	-8.5044365
144	0x3f53bd78	0.8271098
145	0x41472530	12.446579
146	0xc0d04675	-6.5086007
147	0x412f6bc7	10.963813
148	0x3fd44e04	1.6586308
149	0x3ea48d40	0.32139015
150	0x3ffec560	1.9903984
151	0x410bc584	8.735722
152	0xbffc77ac	-1.9724021
153	0x40ceebe5	6.4662957
154	0xc0962886	-4.6924467
155	0x403081d4	2.757924
156	0x4142f12c	12.18388
157	0xc08cfe97	-4.406078
158	0x412ffbde	10.998991
159	0x4042d74e	3.0443912
160	0x407bb164	3.932702
161	0xc18a644c	-17.298973
162	0xc0f8b81e	-7.7724752
163	0x4149df44	12.617008
164	0x4087976d	4.2372346
165	0x411b762d	9.7163515
166	0xbf2fb6f0	-0.68638515
167	0x41037ce2	8.217989
168	0x40b323f7	5.5981402
169	0x40436e8a	3.0536218
170	0xc0fca275	-7.894831
171	0x40012b24	2.018258
172	0x3fe81c08	1.8133554
173	0x419fa4f7	19.95555
174	0x41d0f2c6	26.118542
175	0x41a87248	21.055801
176	0x40753cea	3.831843
177	0x419d2998	19.64531
178	0x4145fdb6	12.374441
179	0x418ec2b7	17.845076
180	0xbf6c9684	-0.9241717
181	0x40fa938f	7.8305125
182	0x40d736c4	6.7254353
183	0xc0866840	-4.200226
184	0x4147efb6	12.496023
185	0x3f04dfd0	0.5190401
186	0xbfc4aabc	-1.5364604
187	0x4060d8e8	3.513239
188	0x410c8c44	8.784245
189	0xbebd20c0	-0.3693905
190	0xc09b805c	-4.859419
191	0x3fdc6cd0	1.7220707
192	0xc1119b2e	-9.100386
193	0xc0dee1d1	-6.9650655
194	0x408984cb	4.29746
195	0xc1040202	-8.25049
196	0xc137d073	-11.488391
197	0xc09777ca	-4.7333727
198	0x408b2b32	4.349023
199	0xbf1406b8	-0.5782275
200	0x40c8eb98	6.278759
201	0x406020b0	3.501995
202	0x40d16eaa	6.544759
203	0x40e003d7	7.0004687
204	0x40b1852d	5.547507
205	0x4172b6ad	15.169599
206	0x415d50be	13.832212
207	0x40a8eaa9	5.278645
208	0xc0f02772	-7.504815
209	0x410de555	8.868489
210	0x40ea4b3e	7.321685
211	0x3f89456c	1.0724311
212	0x404c9b78	3.196989
213	0x40835c78	4.1050377
214	0x3f1abe20	0.6044636
215	0x410f67c5	8.962834
216	0x40e3d017	7.1191516
217	0xc0466a54	-3.1002398
218	0x406b242c	3.6740828
219	0x40a3b609	5.115971
220	0x40e4582d	7.1357636
221	0x41591d5a	13.569666
222	0x40ad076f	5.4071574
223	0x40f061b0	7.5119247
224	0x411db4aa	9.856607
225	0x4131db83	11.116092
226	0x413699f5	11.412587
227	0xbfb13a88	-1.3845987
228	0x41439e3e	12.226133
229	0xc0dc0543	-6.8756423
230	0x4112739e	9.153227
231	0xc08c984e	-4.393592
232	0xbfc86244	-1.5654988
233	0x404a2b4a	3.1588922
234	0xbfd80206	-1.6875618
235	0x40e19327	7.049213
236	0x40e78edc	7.236189
237	0x3e6892a0	0.22712183
238	0xc0441738	-3.0639172
239	0x4015a192	2.3379865
240	0x40bc1bb9	5.878384
241	0xc059eb9a	-3.405005
242	0xc08297e2	-4.0810404
243	0x40a2c885	5.0869775
244	0x4198fde4	19.12397
245	0x41918150	18.18814
246	0x3fb01e94	1.3759332
247	0x414f7213	12.96535
248	0x40643110	3.5654945
249	0xbfcad8c8	-1.5847406
250	0x3fd9a054	1.7002053
251	0x3ee92f10	0.45543718
252	0xc0a207fa	-5.0634737
253	0xc09cbd78	-4.8981285
254	0x400559cc	2.0836058
255	0x409071d7	4.5138965
