mobilenet/contraction_1x1_5_bias.npy (npy, 2176 bytes, 1 tensors)

array f4 [512]
-2.105633 2.9829297 0.70522296 -0.6484486 1.6142032 1.0607469 3.704006 5.17429
2.756308 -0.9595245 1.7682769 1.9062127 2.2026653 -3.9708276 2.786568 2.339668
-1.0470122 0.30802327 1.0529373 2.7558107 1.9495199 3.6949697 1.7854264 4.8816137
1.6756557 -0.7384396 3.3794098 2.5938108 3.0317702 -2.8632588 2.7221327 -0.63801455
0.29855585 2.5385444 0.37539852 4.3213887 1.5558308 1.5806203 1.8515041 5.554931
-2.50783 1.7355175 5.028832 0.36162233 1.9035707 0.6645696 4.447922 1.3327048
1.8901656 -2.2860124 4.553449 -0.73305726 -0.2721902 4.3982058 2.4568558 2.7813396
0.75877273 1.2720718 6.6891108 1.498822 1.685128 0.36961716 -3.0955737 3.7372568
3.3662179 0.54027057 1.5229849 1.5846721 2.267623 -1.5418168 1.8234968 1.0791146
2.963921 2.7218413 -2.8685489 -0.02441907 -1.0810937 0.26006377 -4.915503 0.7040391
2.4077637 -3.5403006 1.963639 3.3596687 3.6052065 0.34042272 2.7213855 -1.34919
-0.56291914 -0.3830216 0.3261348 4.198287 0.9919498 2.979013 1.0707072 0.57923126
1.4199904 -0.21572301 0.27789545 1.995342 1.5539007 1.1304017 3.0367687 -1.8775841
0.7139064 4.356124 1.717377 2.8832936 2.5390804 -3.1025789 1.4825147 -1.133497
2.138019 0.616879 1.2928383 -2.3561997 -0.5663421 1.7990494 -1.1964253 1.7755344
2.374908 3.0479655 3.2344112 1.3239079 4.71088 1.2210312 3.8060055 8.057309
-0.78513515 0.092822194 1.5130627 -1.1173831 0.56448877 1.1246691 4.329248 1.9787526
-0.4842292 2.8277185 2.3100333 3.683782 -3.4965255 2.4615989 3.3120017 4.770647
1.7994614 2.3110354 1.3806444 -0.28129005 3.1163697 1.9324708 0.38960686 3.6468673
4.6960845 0.68135667 -5.3613367 -2.0160139 -0.8343314 2.3807447 1.7627342 2.766776
-0.31268537 3.5473905 1.8015172 -2.5248923 -6.001618 -0.27472952 4.8629255 2.724111
3.0532956 2.3903315 2.1042662 -3.1416821 3.038776 2.2075045 1.2347467 3.4676323
2.3356502 3.0498037 3.1564589 2.292065 0.9969053 0.3214805 3.354255 3.6703393
0.27811933 0.5256094 0.9949082 1.2253957 1.5909401 -0.9216931 2.1192584 1.6860077
2.5394049 2.4062347 3.562472 3.2194812 0.83818614 2.8033195 2.251774 3.4066367
-0.8957864 4.208864 -2.4793868 -2.2191231 -0.98641247 0.3461659 -0.19144084 -2.076357
1.9765446 2.450784 3.7667122 5.026019 4.962763 3.4848928 1.9159615 4.7479286
-0.18721128 -0.32895407 3.533383 0.5826778 3.3169603 1.1828616 2.5827723 2.989637
2.4604466 -0.0999316 0.1626234 5.0532246 1.7364467 0.80606294 1.6499698 5.1593437
2.966431 2.3729765 1.7557641 3.3731728 4.200836 -0.63829863 -3.214962 2.4347596
3.2412426 0.010761499 2.0581098 3.8839588 -1.4906404 2.1596742 2.0763135 0.69294393
0.17338943 0.7528142 3.3222241 3.0503297 3.8302476 1.9664018 2.2919102 1.0488975
00000000: b1c2 06c0 52e8 3e40 7e89 343f ba00 26bf
00000010: 369e ce3f 8ec6 873f 6f0e 6d40 c993 a540
00000020: 5a67 3040 66a3 75bf e656 e23f c7fe f33f
00000030: 78f8 0c40 0a22 7ec0 2157 3240 1fbd 1540
00000040: 7f04 86bf 3ab5 9d3e a6c6 863f 345f 3040
00000050: de89 f93f 627a 6c40 da88 e43f 2e36 9c40
00000060: e37b d63f 610a 3dbf 4048 5840 ff00 2640
00000070: 8608 4240 a23f 37c0 6c37 2e40 ec54 23bf
00000080: 50dc 983e 8377 2240 3c34 c03e d148 8a40
00000090: 7725 c73f c451 ca3f 16fe ec3f ffc1 b140
000000a0: 4980 20c0 7025 de3f 31ec a040 9026 b93e
000000b0: 34a8 f33f 3c21 2a3f 6155 8e40 1296 aa3f
000000c0: f2f0 f13f 074e 12c0 dbb5 9140 a4a9 3bbf
000000d0: 845c 8bbe 1abe 8c40 203d 1d40 7801 3240
000000e0: ee3e 423f 40d3 a23f 320d d640 66d9 bf3f
000000f0: 46b2 d73f 763e bd3e e11d 46c0 372f 6f40
00000100: 1d70 5740 2c4f 0a3f 2bf1 c23f 89d6 ca3f
00000110: bc20 1140 415a c5bf 5868 e93f 6d20 8a3f
00000120: e2b0 3d40 a632 2e40 4e96 37c0 800a c8bc
00000130: 4761 8abf 1427 853e cd4b 9dc0 e83b 343f
00000140: cd18 1a40 4994 62c0 8658 fb3f d004 5740
00000150: b4bb 6640 e34b ae3e 2e2b 2e40 42b2 acbf
00000160: 781b 10bf 681b c4be 24fb a63e 5e58 8640
00000170: 6cf0 7d3f 26a8 3e40 ef0c 893f 8048 143f
00000180: 3fc2 b53f 7ee6 5cbe 5048 8e3e 5e67 ff3f
00000190: 38e6 c63f 01b1 903f 6b5a 4240 ad54 f0bf
000001a0: 92c2 363f 5e65 8b40 02d3 db3f e287 3840
000001b0: 4b80 2240 a790 46c0 0bc3 bd3f 6e16 91bf
000001c0: 4ed5 0840 c8eb 1d3f ba7b a53f facb 16c0
000001d0: ccfb 10bf 4047 e63f 7724 99bf b644 e33f
000001e0: 7efe 1740 de11 4340 9800 4f40 d075 a93f
000001f0: 87bf 9640 c04a 9c3f 9895 7340 bdea 0041
00000200: 9efe 48bf 9019 be3d 0aac c13f 6906 8fbf
00000210: 5682 103f 28f5 8f3f 3389 8a40 c447 fd3f
00000220: e4ec f7be 57f9 3440 96d7 1340 16c3 6b40
00000230: 13c7 5fc0 d68a 1d40 d6f7 5340 24a9 9840
00000240: c054 e63f 01e8 1340 f5b8 b03f 4005 90be
00000250: 9a72 4740 345b f73f 8d7a c73e 4666 6940
00000260: 5346 9640 646d 2e3f 1290 abc0 5f06 01c0
00000270: be96 55bf 1f5e 1840 46a1 e13f dc12 3140
00000280: 4c18 a0be 7208 6340 1e98 e63f d697 21c0
00000290: 410d c0c0 59a9 8cbe 169d 9b40 d657 2e40
000002a0: 3269 4340 31fb 1840 4cac 0640 5211 49c0
000002b0: 4e7b 4240 c147 0d40 2e0c 9e3f b0ed 5d40
000002c0: 4b7b 1540 fc2f 4340 6c03 4a40 31b1 1240
000002d0: 3035 7f3f 1899 a43e 1dac 5640 d7e6 6a40
000002e0: a865 8e3e 568e 063f 4eb2 7e3f c4d9 9c3f
000002f0: eda3 cb3f 14f4 6bbf eea1 0740 1acf d73f
00000300: 9c85 2240 c0ff 1940 8bff 6340 fb0b 4e40
00000310: 5e93 563f 9669 3340 111d 1040 5606 5a40
00000320: 4252 65bf 04af 8640 46ae 1ec0 1d06 0ec0
00000330: 8785 7cbf a83c b13e 1109 44be 08e3 04c0
00000340: 6aff fc3f a5d9 1c40 d011 7140 26d5 a040
00000350: f4ce 9e40 7c08 5f40 3a3e f53f 08ef 9740
00000360: 50b4 3fbe ab6c a8be f222 6240 5f2a 153f
00000370: 1449 5440 0268 973f 244c 2540 3656 3f40
00000380: f577 1d40 f0a8 ccbd c086 263e 04b4 a140
00000390: e343 de3f 245a 4e3f 3632 d33f 5819 a540
000003a0: 01da 3d40 d9de 1740 e1bc e03f 10e2 5740
000003b0: 406d 8640 8a67 23bf f0c1 4dc0 1ad3 1b40
000003c0: 8570 4f40 0051 303c 12b8 0340 c892 7840
000003d0: 4ecd bebf 1a38 0a40 52e2 0440 c664 313f
000003e0: 008d 313e 6eb8 403f 529f 5440 9a38 4340
000003f0: c722 7540 0eb3 fb3f a8ae 1240 4642 863f
