mobilenet/contraction_1x1_3_bias.npy (npy, 1152 bytes, 1 tensors)

array f4 [256]
00000000: 0815 d5bf ac60 1c40 ded8 6940 cd96 a040
00000010: 5ca1 223f b603 783f 2d8c 1340 51d0 60c0
00000020: 4e7e b740 feab eb3f fd2e 7d40 2a73 f13f
00000030: 5ef8 0c40 71c2 5640 0659 103f 6d01 893f
00000040: 1ccd 64be 9552 c8c0 ced9 1a40 435f 3740
00000050: a056 e5bd 6092 db40 00ef acbd 222a 6640
00000060: 995f b940 5949 98c0 c445 cc3e 92f5 153f
00000070: a93f d5c0 c724 71c0 5476 9b40 ef0a 653f
00000080: 0062 993e 5e1e f63f 4089 703e 6408 443f
00000090: e407 b03e b6a2 bc40 a2fb d4bf 9a58 e13f
000000a0: 6d8e b240 46a0 6cbf 75e6 e040 ea1f c4bf
000000b0: d955 acbf 5b05 9040 1e15 933f 895e 7440
000000c0: fb24 0340 84bb 6bbe f7e5 9240 1266 7c40
000000d0: 9260 1a40 460a 5140 bc87 6e3f 957b 8b3f
000000e0: 5c26 b73e 00e8 9340 6e2b 8fc0 7e19 0841
000000f0: 72bb c63f a05a 183e fa1f 303f 5a2f 02c0
00000100: 325e 0740 a127 2dc0 1316 fb3e a04d a440
00000110: b51f 9d40 5ea7 1640 7e9c 8040 7205 9340
00000120: a012 2c40 2440 6cc0 2848 2e3f e421 87c0
00000130: 198a f93f cc0f b83e 6935 1940 eb35 ff3f
00000140: fa1f 0d40 9cb0 13c0 645b e23f e02e 8640
00000150: 3090 2c40 1004 7c3e 30a1 3c40 54da e1bd
00000160: 4629 9040 dd83 0f40 702a b640 d87a 293d
00000170: b06e 7fbf 8872 2240 b439 0dc0 5e0e c5bf
00000180: 5813 7240 eebc c3bf 0237 703f 0073 a63f
00000190: e0fe 22be 7657 0141 3107 923f b2e7 5e40
000001a0: 9082 2d3f d2ea 80bf e0d6 42bf 902b 64c0
000001b0: 8f6c 2340 077d e340 7ab1 803f 2651 5ebe
000001c0: 3ba9 cc3f e3f9 07c0 0e0c 3bbf a2a1 24c0
000001d0: c26f 5a40 2acf 7140 e814 67bf b09a 8940
000001e0: 8419 1b3f f41d ff3e 1bb5 7040 68cd 073e
000001f0: 81cd 393f 63f0 dc3f b88b 8c40 15fd 0840
00000200: 114f 7940 d8a1 8f40 1fb3 26c0 ddfa 2340
00000210: 88c9 0540 12ab 6ebf c074 9d3f eb75 1541
00000220: 723f 5c40 ce2f 51c0 ea1e a5bf dd07 a7bf
00000230: 3c07 213f 2c44 623e 4e0f b83f ad7a a440
00000240: 0174 2fc0 9b09 7f40 1c6b eb3f 1cfe 7b3f
00000250: 3087 253e 873b 233f 4b77 7a40 c06b c03f
00000260: 2a8e 7640 3ec7 bc3f 1a0e 5c3f 6893 6d40
00000270: 3e60 aec0 7c5b a940 3922 1041 3906 9040
00000280: 9176 4740 f4b2 1340 1946 c5bf 1423 7e3f
00000290: 3db0 9b40 6dc0 ca3f 10dc f9be 4faa 6740
000002a0: 9714 af3f 6c6f c53f d27a 393f 78d9 3140
000002b0: b6cb a8bf 56f7 f13f 10cd 013e cb67 3340
000002c0: f78a 57c0 4b8b 0741 c889 4a40 e9c7 f53f
000002d0: 40ea cebe 1417 e6be ee42 56c0 d6f4 f2bf
000002e0: 5a8a 5440 db95 6c40 78c2 5740 6942 2240
000002f0: 78c6 013e aa29 5740 cc3a 3c40 4474 4940
00000300: 6ee5 533f de4f c93f e633 7a40 c8a3 5340
00000310: 0ae0 6940 bef6 5940 14ba d43f 04ce 943f
00000320: 38c9 a440 d803 4240 c663 3640 a755 8740
00000330: 41c4 b4bf 9a0a a440 6026 f0be fe40 323f
00000340: 5436 2240 28d6 c83f 4d2a b93f 09c3 9840
00000350: 20a1 03bd e2c7 c83f f38f d43f b68b 52bf
00000360: 97df 8240 946e 083f 9909 e1c0 fb06 1240
00000370: 8ab9 7b40 5da3 493f 9541 2f40 66fe 31bf
00000380: 4282 5c40 5759 1e40 e2ea d33f a23c 62c0
00000390: 263c 51bf 5ccf 8fc0 0c72 7b40 e302 2341
000003a0: 51dc 4540 0c32 e43e 629d ca3f bd85 a1c0
000003b0: 8d8b 8a3f 80ef babf 4871 0440 68e4 e9bf
000003c0: 95ad 4fc0 9752 8e3f c089 5340 4a5d 103f
000003d0: 6ecc 7940 6eca b040 0e87 8440 b8b9 c53e
000003e0: 4449 0bc1 fb3f f83f 11a5 1a40 c0b3 6640
000003f0: d14e c03f fec6 55c0 6f6f 3c40 05f8 3140
-1.6647043 2.4434004 3.6538615 5.0184083 0.63527465 0.9688066 2.3054307 -3.5127146
5.734168 1.8411863 3.955993 1.886327 2.2026591 3.3556178 0.5638584 1.070356
-0.22343868 -6.260081 2.4195437 2.8651893 -0.11198163 6.861618 -0.08444023 3.5963216
5.7929196 -4.7589536 0.39896977 0.58577836 -6.664021 -3.7678697 4.8581944 0.8946981
0.2995758 1.9228017 0.23489857 0.76575303 0.3438102 5.894862 -1.6639292 1.7605164
5.579886 -0.9243206 7.028132 -1.5322239 -1.3463699 4.5006537 1.149082 3.81827
2.049132 -0.2302075 4.590572 3.9437299 2.4121442 3.266252 0.93175864 1.0897089
0.35771453 4.6220703 -4.4740515 8.506224 1.5525954 0.1487832 0.6879879 -2.03414
2.1151242 -2.7055438 0.4904028 5.1344757 4.9101205 2.3539653 4.019103 4.5944147
2.6886368 -3.6914148 0.6807885 -4.222887 1.9495269 0.35949552 2.393885 1.993833
2.2050767 -2.3076544 1.768414 4.193222 2.6963005 0.24610925 2.947338 -0.11027971
4.5050383 2.2424233 5.6926804 0.04137692 -0.9977827 2.5382404 -2.206647 -1.539501
3.7824306 -1.5292032 0.93833935 1.3003845 -0.1591754 8.083853 1.1408445 3.4828916
0.6777735 -1.0071661 -0.76109123 -3.5651588 2.553501 7.109012 1.0054162 -0.21710643
1.5989145 -2.1246269 -0.7306527 -2.5723653 3.4130712 3.7782693 -0.90266275 4.3001328
0.6058581 0.4982754 3.7610538 0.1326195 0.725792 1.726086 4.3920555 2.140447
3.8954508 4.4885063 -2.6046827 2.5621865 2.0904255 -0.9322978 1.2301254 9.341289
3.4413724 -3.2685428 -1.2900059 -1.3049275 0.62901664 0.22096318 1.4379671 5.139975
-2.7414553 3.9849613 1.8392062 0.98434615 0.16164851 0.63762707 3.913531 1.5032883
3.852427 1.4748304 0.8595902 3.712122 -5.4492483 5.2924175 9.008355 4.5007596
3.1166117 2.3077974 -1.5412017 0.99272275 4.8652635 1.5839974 -0.48800707 3.6197698
1.3678159 1.5424628 0.72453034 2.7788982 -1.3187168 1.8903606 0.12675881 2.80321
-3.3678567 8.471507 3.1646595 1.9201633 -0.40413094 -0.44939482 -3.347835 -1.8980968
3.3209443 3.6966465 3.3712444 2.5353034 0.12673366 3.361918 2.9410887 3.1477213
0.82771957 1.5727499 3.9094176 3.3068714 3.6542993 3.405685 1.6619287 1.1625371
5.149563 3.0314846 2.8498397 4.2292056 -1.4122392 5.126294 -0.46904278 0.6963042
2.534566 1.5690355 1.4466034 4.773808 -0.032136083 1.5685999 1.660643 -0.8224443
4.0897937 0.5329373 -7.0324216 2.281676 3.9331994 0.787649 2.7383778 -0.69528806
3.4454503 2.4742029 1.6556056 -3.5349507 -0.81732404 -4.4940624 3.9288359 10.188205
3.091572 0.44569433 1.582928 -5.0475755 1.0823838 -1.460434 2.0694141 -1.8272829
-3.2449696 1.1118954 3.3052826 0.5639235 3.9031024 5.5247107 4.141486 0.38618255
-8.705387 1.9394525 2.4163249 3.604721 1.5024053 -3.3402705 2.9443014 2.780763
