mobilenet/contraction_1x1_7_bias.npy (npy, 2176 bytes, 1 tensors)

array f4 [512]
00000000: b108 8ebf c8ee 83c0 b11e a1bf 402f 20be
00000010: 56b9 b23f 1ec1 6ec0 7bd3 0040 500c 283f
00000020: 84f1 a03f 54ed 36c0 a4cc 6bbe 0786 2740
00000030: 8149 0440 765f 24bf 2a11 8140 ed2a e33f
00000040: 406e 863e a5d4 2f3e 302f 7940 633a 1ac0
00000050: 30eb 2c40 5ada 3940 08da 713e 9cf7 a23c
00000060: 8b41 8dbf aae9 5940 f49d 883f 1c1d 0240
00000070: 8124 e0c0 4280 c53f 20a4 6640 11b8 3540
00000080: 0a16 5b3f 9408 bd3d 452d c13f b0a0 5740
00000090: 9c89 8bc0 e4f7 153f 6df3 9240 5488 a0be
000000a0: d2e8 0fc0 dcef 94be 700b 17be a4ad 3cbe
000000b0: b871 2a40 1982 fabe 5f8b a43f b988 18c0
000000c0: dd0c 86bf 6f9b 833f b5c2 a4bf c00e cc3c
000000d0: 86d1 e2bf eeb5 d6be e8ac 0c3f 26a1 6bbf
000000e0: dc8c 9b3f c619 d13f cff8 0540 54db e6be
000000f0: fea6 bd3e ad9f 003f e7a5 c13f c0e9 d43e
00000100: 809e 783d 584a 1f3d 2032 c23e 52ac ad3f
00000110: 804a 0dbd fee2 ddbf 2fe5 4c3f 004a 40bf
00000120: a3d9 793f bbf6 a3be 2530 61bf 02db 4cc0
00000130: e854 01c0 f06b 90c0 c273 333f 73c2 0540
00000140: 899b 3440 1949 bb3f 8241 4940 72cd 603f
00000150: 98f5 d13f 2e04 1940 283f 1a3f 883b babf
00000160: 88af 5ec0 f2cf bcbf d885 62bf 4cac 89c0
00000170: b33d 2b3f cd6d f33f b8e6 e23f 3aaf 263f
00000180: 400d 833d de13 9a3f 24e1 8240 3e20 2740
00000190: 6911 0d40 2ef7 823f 1b8d 62bf da14 85c0
000001a0: 0d76 08c0 d7ee 1d40 70de 713f 3135 32bf
000001b0: de4c 9ebe cf83 2740 5a46 17c0 4217 c23f
000001c0: 4d6e 963f 201b 2b3e d558 27bf 8c82 ef3f
000001d0: e09a 07bf 9121 abbe edad 18c0 d7d0 5340
000001e0: 54ff 71c0 1c60 cb3f b067 1b3e 4d15 e63f
000001f0: ee65 103f de29 933f 5cd7 dcbf c7fa e03f
00000200: f611 913f 30cd 4c40 a69f 2cc0 cb19 3240
00000210: 8e67 0740 3232 bfbe c3a0 09c0 a8ad 8cbf
00000220: a4cf 99be e482 acbf 787a d13d 5a97 b33f
00000230: 5dd4 aabf ab7a 6e3f 0875 ca3f 0e12 8740
00000240: b439 e83e cb3b e33f a6fb 373f d09c ab3f
00000250: 5631 0b3f c66d af3f f05d 65c0 7d4f b53f
00000260: f9fe 603f 474a 943f 04d7 7a3f 5737 e23f
00000270: 42d5 f83f ae49 18bf d0ea 1640 5671 c03f
00000280: 115c 3b40 61b9 44c0 00e2 1dbe ab11 8ec0
00000290: bccd 233f 40b5 61bf 24ba e13f 234c ddbf
000002a0: 540e de3e c65b 8040 764f ee3f 40c6 64c0
000002b0: 8160 0c3f 107f 473f d2e5 b83f 0e9c 81bf
000002c0: 92f1 823f 3298 bc3f b8b0 653f c825 a7be
000002d0: a73c dcbf da9b bc3f 6e01 b53f 6d6b 13bf
000002e0: 32cc 8bbe 300b c6bf 2825 ffbf ceef 8ebf
000002f0: eaed 5240 aee7 a03f 9c5e 52c0 d1d5 40bf
00000300: ac33 f8bf 7e3f b53f 9978 693f 792b b83f
00000310: 8444 10c0 227e 223f 9827 353f c09d adbb
00000320: 0f47 3f3f ce56 883f e462 2bc0 6072 3d3e
00000330: c50d fbbf e538 0940 cbe9 863f 741b b5bf
00000340: 88a0 553e 7f32 6c3e 88a5 dbbf f33a 973f
00000350: 85e1 2540 fcab da3e 68ee 7a3f aacf eabe
00000360: 488c fe3f afeb ec3f a608 853f 0152 09c0
00000370: caec 04bf 695a b43f f25f 0540 f87d 283f
00000380: 8896 6bbf ee09 1a40 51ce 963e 15d9 40c0
00000390: 57e3 b23f 7b8c b4bf a06e 5a3f 6c14 a13e
000003a0: 8cd9 943e d23a da3f a446 0940 0629 a0c0
000003b0: 6e6d 59bf c2dd 1ec0 3c3c d93f bee0 4240
000003c0: cc73 f93f d2f0 eabe 32fc 8fbe 625b ac3f
000003d0: 46f0 6f3f 6ca4 84bf 7d66 0b40 5c3b c53f
000003e0: 423a b640 2a2d 02be 1a13 76bf cb4e 8ebf
000003f0: 2456 693f b019 833d 003b 4040 9c70 02bf
-1.1096402 -4.122898 -1.2587491 -0.15643024 1.396281 -3.730537 2.0129077 0.6564379
1.2573705 -2.8582354 -0.23027283 2.6175554 2.0669863 -0.6420816 4.033345 1.7747475
0.2625599 0.17170961 3.893505 -2.4098136 2.7018547 2.9039521 0.23618329 0.01989346
-1.1035627 3.4048867 1.0673203 2.0330267 -7.004456 1.5429766 3.6037674 2.8393595
0.85580504 0.09230152 1.509194 3.3691826 -4.360548 0.58581376 4.592215 -0.3135401
-2.2485852 -0.29089248 -0.14750457 -0.18425614 2.6631908 -0.48927382 1.2855033 -2.383345
-1.0472676 1.028181 -1.287192 0.024909377 -1.7720191 -0.41935676 0.54951334 -0.9204277
1.2152362 1.633599 2.093311 -0.4508921 0.37041467 0.50243646 1.5128754 0.41584587
0.060698032 0.03888926 0.37928867 1.3568213 -0.034494877 -1.7334898 0.80037206 -0.75112915
0.9759771 -0.32024178 -0.8796409 -3.2008672 -2.0208073 -4.513176 0.7009851 2.0899932
2.821993 1.4631683 3.1446233 0.87813485 1.6403074 2.39088 0.6025262 -1.4549417
-3.4794636 -1.475096 -0.8848548 -4.3022823 0.6689102 1.9017884 1.772666 0.65111125
0.063990116 1.2037313 4.089983 2.611343 2.2041876 1.0231683 -0.8849656 -4.1587954
-2.1322052 2.4677026 0.9448004 -0.69612414 -0.3091802 2.61742 -2.363669 1.5163348
1.1752411 0.16709566 -0.6536992 1.8711715 -0.52970695 -0.33424047 -2.3856156 3.3096216
-3.781209 1.5888705 0.15176272 1.797525 0.5640553 1.1497152 -1.7253222 1.7576531
1.1333606 3.2000237 -2.6972442 2.7828243 2.1156955 -0.37342983 -2.150437 -1.0990496
-0.3004123 -1.3477445 0.10228437 1.4030564 -1.3346058 0.93155926 1.5816965 4.220954
0.45356524 1.7752622 0.7186836 1.340723 0.54372156 1.3705375 -3.5838585 1.4164883
0.8788906 1.1585168 0.9798434 1.7673138 1.9440081 -0.59487426 2.3580818 1.5034587
2.9274943 -3.0738146 -0.15418243 -4.4396567 0.639858 -0.8816719 1.7634931 -1.728886
0.43370306 4.011203 1.8618 -3.5746002 0.54834753 0.77928257 1.4445136 -1.0125749
1.0229971 1.4733946 0.89722776 -0.32646012 -1.720601 1.4735062 1.4141061 -0.57585794
-0.27304226 -1.5472164 -1.9933214 -1.1166933 3.2957711 1.2570703 -3.2870245 -0.7532626
-1.9390769 1.4160001 0.9119964 1.4388267 -2.2541819 0.63473713 0.7076354 -0.0052983463
0.747178 1.0651491 -2.6779108 0.18500662 -1.9613577 2.1440976 1.0540098 -1.4149003
0.20862019 0.23066138 -1.7159891 1.1814865 2.5918896 0.4270934 0.9802003 -0.4586156
1.988656 1.8509425 1.0393264 -2.1456301 -0.5192381 1.4090091 2.083981 0.65817213
-0.9202657 2.406856 0.29454282 -3.0132496 1.3975629 -1.4105371 0.8532505 0.31460893
0.29072225 1.70492 2.1449366 -5.0050077 -0.849326 -2.482285 1.6971507 3.0449672
1.9488463 -0.45886856 -0.28122097 1.3465388 0.93726003 -1.0362678 2.1781304 1.540874
5.6946115 -0.12712541 -0.96122897 -1.1117796 0.91147065 0.06401384 3.003601 -0.5095308
