mobilenet/contraction_1x1_6_bias.npy (npy, 2176 bytes, 1 tensors)

array f4 [512]
0	0x3f9d3f92	1.2285025
1	0xbecdef48	-0.4022162
2	0xc0730405	-3.7971203
3	0x3d866ea8	0.06564075
4	0xc013fb28	-2.3122044
5	0x3e2b67b8	0.16738784
6	0x3efef60a	0.49797088
7	0x3f8b6c6c	1.0892463
8	0xc0049fd6	-2.0722556
9	0xbf8c5326	-1.0962875
10	0x400218f0	2.032772
11	0x4014dbc0	2.3259125
12	0x3f985764	1.190167
13	0x3fc5b446	1.544564
14	0x3f2505f8	0.6446223
15	0x40123e43	2.2850502
16	0xc00a13fc	-2.1574697
17	0x3c171cc0	0.009223163
18	0x3f13f46c	0.57794833
19	0xbf40b8c8	-0.75281954
20	0x40c6146c	6.189993
21	0x3f333242	0.6999856
22	0xbedfac4c	-0.4368614
23	0x3f92c3e9	1.1466037
24	0x3f095b79	0.536552
25	0xbf0728f8	-0.5279689
26	0xbe801784	-0.2501794
27	0xc00c0018	-2.1875057
28	0xbde8f712	-0.1137525
29	0xbee8f5ae	-0.4549994
30	0xbdbc2250	-0.09186232
31	0x3f45836b	0.7715365
32	0x3f8c477a	1.0959313
33	0x3f7499c8	0.9554715
34	0xc03ab5a2	-2.917336
35	0xbfdb34a4	-1.712544
36	0xbee29890	-0.4425702
37	0x40437fd7	3.0546777
38	0x3ffe2e29	1.9857837
39	0x4019d9c3	2.4039161
40	0x4051171c	3.2670355
41	0xbf7fadc4	-0.9987452
42	0xbf73796f	-0.9510717
43	0xc052715d	-3.2881691
44	0x3f24d057	0.643804
45	0xbf3c4d48	-0.7355542
46	0xc0214150	-2.5196114
47	0xbee8bc34	-0.45456088
48	0x40096389	2.1467001
49	0x403b8040	2.9297028
50	0x3fbefd59	1.4921066
51	0x3fdac2c6	1.709069
52	0x3e0406ec	0.12893265
53	0xc03c29e2	-2.9400563
54	0xc01391c6	-2.3057723
55	0x3f4adcff	0.79243463
56	0x3fee7918	1.8630705
57	0x3fd53786	1.665757
58	0xc106fb50	-8.436356
59	0x3fd2d44a	1.6471035
60	0x3fe4d60b	1.7877821
61	0xc0817831	-4.045922
62	0x40801c5a	4.003461
63	0x3f58d5b4	0.84701085
64	0xc04ba730	-3.1820793
65	0xbe7e8608	-0.24855816
66	0x40295a26	2.6461272
67	0x3fe8bffc	1.8183589
68	0xbf6f30c2	-0.93433774
69	0x3fd06a98	1.628253
70	0x3fe1087a	1.7580712
71	0xbe2d6d70	-0.16936278
72	0x3fbdad10	1.481844
73	0x3f0bc3a6	0.5459541
74	0x402efdb7	2.7342355
75	0x3f3d2774	0.73888326
76	0x3f3c9ca2	0.736765
77	0x3f3afcb8	0.7304187
78	0x3f09a53e	0.53767765
79	0xbfcc0332	-1.5938475
80	0x3ec9d0a0	0.3941698
81	0xbfd02e7c	-1.6264186
82	0xbf5680b0	-0.8379011
83	0xbf32b58f	-0.69808286
84	0x3fec9ccf	1.8485354
85	0x3ff47e1f	1.9100989
86	0x3e9c6f08	0.3055346
87	0x3f213226	0.62967145
88	0xbf4e6410	-0.80621433
89	0xc02e0f9c	-2.7197027
90	0x3eddcabb	0.43318734
91	0x3ef48e27	0.47764704
92	0x3ebd3277	0.36952564
93	0x40c67e2a	6.202901
94	0x4012f7f7	2.2963846
95	0xbfe70336	-1.8047855
96	0x40369ff5	2.853513
97	0xc0842a41	-4.130158
98	0x3fc8bb1a	1.5682099
99	0xbf6b0d06	-0.9181675
100	0x40602362	3.5021596
101	0x3f653a2f	0.89541906
102	0xbe105ae1	-0.14097168
103	0x3f8890eb	1.0669225
104	0xbf5ba510	-0.8579874
105	0xc042ccd4	-3.0437517
106	0xbedfbef9	-0.43700388
107	0x3f891477	1.070937
108	0xbf5ee2e9	-0.8706499
109	0x40296e30	2.6473503
110	0x401cd8dc	2.450736
111	0x402dd238	2.7159557
112	0x3e62d710	0.22152352
113	0x3f8b826e	1.0899179
114	0x3d6de6a0	0.05808127
115	0x3f80db31	1.0066892
116	0x4013584e	2.3022647
117	0x404c9155	3.1963704
118	0x4008ae07	2.1356218
119	0x3f9bf01a	1.2182648
120	0xbe407594	-0.18794852
121	0xbf69b78c	-0.91295695
122	0xbed05b2a	-0.40694553
123	0x3e247abb	0.16062443
124	0x3e5355e8	0.2063824
125	0xbfccc9e4	-1.5999112
126	0x3eb67f80	0.3564415
127	0x3e81e207	0.25367758
128	0xbeaa7433	-0.33291778
129	0x3de721f0	0.1128577
130	0x3f9ce12e	1.2256219
131	0xbf0dc6ae	-0.55381286
132	0x40045c4d	2.0681336
133	0xbf9cae70	-1.2240734
134	0xbed0d5a8	-0.40788007
135	0x409d1e92	4.9099817
136	0x3ff7d24e	1.9361055
137	0x3ea89bac	0.32931268
138	0x3fc5443c	1.5411448
139	0x402bfc23	2.6872642
140	0x40adc562	5.4303446
141	0x3fac44c5	1.3458487
142	0x403948fe	2.89508
143	0x3eaa1088	0.33215737
144	0xbf903819	-1.126712
145	0x4033c124	2.8086634
146	0x3ce40ec0	0.027839065
147	0xbf09f43a	-0.53888285
148	0x409fe60c	4.996832
149	0x407031a1	3.753029
150	0xbf728891	-0.94739634
151	0xbfb30784	-1.3986669
152	0xbe8b85f8	-0.27250648
153	0x3f967ec2	1.1757433
154	0xc0254585	-2.5823681
155	0xbfbc98c6	-1.4734123
156	0x3ffe7077	1.9878072
157	0xbfeedc17	-1.8660916
158	0xbf39fcac	-0.7265117
159	0x3f992186	1.1963356
160	0x3d3b61f0	0.045747697
161	0xc08edab3	-4.4641967
162	0x3e34a91f	0.1764264
163	0x40096ca4	2.147256
164	0x3fb46bf8	1.409545
165	0xbe098ed8	-0.13433397
166	0x40821178	4.0646324
167	0x3fdf676a	1.7453434
168	0x3f5372c2	0.8259698
169	0x3daa52b2	0.08316554
170	0xbf17781c	-0.5916765
171	0x3f48bb6e	0.78410995
172	0x405650ea	3.3486886
173	0xc04eaf53	-3.229451
174	0xbf544613	-0.82919425
175	0x3f89b0f0	1.0757122
176	0xbf86313c	-1.0483775
177	0x40497965	3.1480343
178	0xbf980342	-1.1875994
179	0x3df34503	0.11878397
180	0xbf8347f1	-1.025633
181	0xbc996d50	-0.018728882
182	0x3fd9366d	1.6969734
183	0x3f9a94a6	1.2076614
184	0x402f1a05	2.735963
185	0x3c992900	0.018696308
186	0x3ff544ca	1.9161618
187	0x3f26f957	0.6522421
188	0x3e4873b0	0.19575381
189	0x401ff32e	2.4992175
190	0x40141a88	2.3141193
191	0x3f18b0eb	0.59644955
192	0xbc9b6400	-0.018968582
193	0xc007d99f	-2.1226575
194	0x3e1236e2	0.14278749
195	0x3fb6b6aa	1.4274495
196	0x3edc9c4f	0.43088004
197	0x4025a79c	2.588355
198	0xbf2f5ef6	-0.68504274
199	0xbfe962bf	-1.823326
200	0x3f1eb0db	0.6198861
201	0xbedad278	-0.427387
202	0x3db5c230	0.08874929
203	0x3f1cf2c2	0.6130792
204	0xc029c719	-2.652777
205	0xc01cc30a	-2.4494042
206	0x4052f700	3.2963257
207	0x3fd02939	1.626258
208	0xbf4f5bdc	-0.8099954
209	0x3f476949	0.7789503
210	0xc00846db	-2.1293247
211	0xbee5bdb6	-0.448713
212	0x3e25a430	0.16175914
213	0x3f1f3cc4	0.62202096
214	0xbd479420	-0.048725247
215	0x40079642	2.118546
216	0x3f1d0bf2	0.6134635
217	0x3f598227	0.8496422
218	0x3fd4e345	1.6631857
219	0xbf47b4b8	-0.7801013
220	0x3f5f8e81	0.8732682
221	0x40202586	2.5022902
222	0x3f998767	1.1994447
223	0x406659bd	3.5992272
224	0xc03889e4	-2.8834162
225	0x3fe18c03	1.7620853
226	0xc0729457	-3.790304
227	0x3f26ac08	0.6510625
228	0x3e427a10	0.18991876
229	0x40462888	3.0962238
230	0x3f100e65	0.56271964
231	0xbfc16f58	-1.5112104
232	0x40098d68	2.1492558
233	0x3f92f008	1.1479502
234	0x3fa3b047	1.278817
235	0x3e95c301	0.2925034
236	0x3f7abde0	0.97945976
237	0x3f23f917	0.64051956
238	0x402c4a60	2.6920395
239	0x402b5539	2.6770766
240	0x3fd89001	1.6918947
241	0x3f3a3e98	0.7275176
242	0x40004c7a	2.0046678
243	0xbd0daca0	-0.034588456
244	0xc05daf17	-3.4638116
245	0xbf89bffb	-1.0761713
246	0xbdfb3324	-0.12265614
247	0x3f78419f	0.9697513
248	0x3e343a9c	0.17600483
249	0x3f4814ee	0.78156936
250	0x3e0774b8	0.13228118
251	0xbf5039ea	-0.8133837
252	0xc01f215c	-2.486411
253	0x3f13b0bd	0.57691556
254	0x3f1741b7	0.5908465
255	0x40ade3de	5.434066
