mobilenet/contraction_1x1_4_bias.npy (npy, 1152 bytes, 1 tensors)

array f4 [256]
0	0x3e2bd108	0.16778958
1	0x3ebabcc8	0.36472154
2	0x400860ef	2.1309164
3	0xc10df5bc	-8.872494
4	0xbfeacd1b	-1.8343843
5	0xbfed52bc	-1.8540874
6	0xbfd3b4fe	-1.653961
7	0xc0319448	-2.7746754
8	0xc002900f	-2.0400426
9	0xbf75604e	-0.95850074
10	0xc06b088c	-3.6723967
11	0xbe1cbf68	-0.1530739
12	0xbff4005e	-1.9062612
13	0xc06ed0fa	-3.731505
14	0xbfbb24ca	-1.4620602
15	0xc035f8b5	-2.8433049
16	0x3fbb941c	1.4654574
17	0x407f3350	3.9875069
18	0xc0596e2b	-3.397349
19	0x3feb0053	1.8359474
20	0x40942cfc	4.6304913
21	0xc0822050	-4.0664444
22	0x40b53310	5.662483
23	0xc0908320	-4.5160065
24	0xbfcb9130	-1.5903683
25	0xc02d99f4	-2.7125216
26	0xbff48fec	-1.9106421
27	0xbf1345b4	-0.57528234
28	0xc01c58dc	-2.4429235
29	0x3f3fcbdc	0.7492044
30	0xc03f7abd	-2.9918664
31	0xbf6dadf8	-0.9284358
32	0x40356aa8	2.8346348
33	0x3fb210da	1.3911393
34	0x3e3411c0	0.17584896
35	0xbf7c6e32	-0.98605645
36	0xbfb52e66	-1.4154785
37	0xbf7d07fe	-0.9884032
38	0xbff2b81b	-1.8962435
39	0x3fb3f33e	1.4058607
40	0x3dc87340	0.09787607
41	0xbfd2b52b	-1.6461538
42	0xc0c94d7a	-6.2907076
43	0x4010be3a	2.2616105
44	0xc08b71ee	-4.3576574
45	0x3f3a6c67	0.7282166
46	0xc0debd5a	-6.960614
47	0xc040537c	-3.0050955
48	0xbfc946f1	-1.5724775
49	0xbf6e6164	-0.93117356
50	0xc07c9bb2	-3.947003
51	0x3b7e7300	0.003882587
52	0xc00fb3eb	-2.2453563
53	0xc06021a1	-3.5020525
54	0xbfb8037a	-1.4376061
55	0xc053d738	-3.310011
56	0xbf86f60a	-1.0543835
57	0xbe5bf108	-0.21478665
58	0xbfb440c5	-1.4082266
59	0xbddaa70c	-0.10676393
60	0x400b2de0	2.174675
61	0xc044f46c	-3.0774183
62	0x3fa38cd5	1.2777354
63	0x3fbbf4ea	1.4684117
64	0xc06e555c	-3.72396
65	0x3f7fea9a	0.9996735
66	0xc041221c	-3.0177069
67	0x40158f2e	2.336864
68	0x3fbeccd4	1.4906259
69	0x3f2a1d7e	0.6645125
70	0x407d42d6	3.9572043
71	0x4003c405	2.058839
72	0x403afa4c	2.921527
73	0xc08e4b8b	-4.4467216
74	0x403e22b4	2.970868
75	0x4092e1f0	4.5900803
76	0xbfc2091a	-1.5159028
77	0xbea36f86	-0.31921023
78	0xbfcfb1b7	-1.6226109
79	0xc10c2706	-8.759527
80	0xc0128696	-2.2894645
81	0x40051c5a	2.0798554
82	0xbc9ab5c0	-0.018885493
83	0x3f4af727	0.79283375
84	0x3fd45833	1.6589416
85	0x4013e598	2.3108883
86	0xc0be0f80	-5.939392
87	0xc0bdb750	-5.928627
88	0xbdf0e4c0	-0.117623806
89	0xbfa1be86	-1.2636268
90	0x4004e1c7	2.0762804
91	0xc0a8e406	-5.277835
92	0x40555c77	3.3337686
93	0x3f7fe57e	0.9995955
94	0x4007ca03	2.1217048
95	0x3e826f68	0.2547562
96	0xbfefb1c1	-1.8726121
97	0x3fc3afc2	1.5288012
98	0x3ec2028a	0.37892562
99	0xc0423e18	-3.03504
100	0xbf42b943	-0.76063937
101	0xbfb9e7ce	-1.4523866
102	0xc00b91a5	-2.1807644
103	0x3ed8d93c	0.42353237
104	0xc09f923d	-4.9866014
105	0xc046c9ca	-3.1060662
106	0x3fbb995a	1.4656174
107	0xc0a85adf	-5.2610927
108	0x3fc05603	1.5026249
109	0xbf477826	-0.77917707
110	0xc0afc2a6	-5.492511
111	0x4021b6c8	2.526781
112	0x4021726e	2.5226092
113	0xbfd5fc59	-1.6717635
114	0xbfba5159	-1.4556075
115	0x3f678898	0.904428
116	0x40a01500	5.0025635
117	0xc0978150	-4.734535
118	0xbd3fe720	-0.046851277
119	0xbf4ddbf5	-0.8041375
120	0x4076961a	3.8529115
121	0x401a831a	2.4142518
122	0xbf0b50d0	-0.54420185
123	0xbfba9f3a	-1.4579842
124	0x3fb90651	1.4455053
125	0x3f8860d9	1.0654556
126	0xbf7b9f99	-0.982904
127	0x4004fe82	2.078034
128	0xc106ff51	-8.437333
129	0x3e27dc20	0.16392565
130	0x3f77ca2e	0.96792877
131	0xc08471a6	-4.138873
132	0xc0181b90	-2.3766823
133	0xbff41ff7	-1.9072255
134	0xc091b8a2	-4.553788
135	0xc047b057	-3.120138
136	0x3fda5232	1.7056334
137	0xc050099c	-3.2505865
138	0xc08a10ef	-4.314567
139	0x3f70544c	0.93878627
140	0xc0d38e51	-6.6111226
141	0xc04274e6	-3.038385
142	0xbfbcc34f	-1.4747103
143	0x3f9185ce	1.1368959
144	0xbf2c17b3	-0.6722366
145	0xbfde73ee	-1.7379129
146	0xbfba4c93	-1.4554619
147	0xc0ae330b	-5.443731
148	0xbf532cf6	-0.8249048
149	0x401a8d3a	2.4148698
150	0x3f9a3a8a	1.2049115
151	0xc1128a46	-9.158758
152	0x3f55e5f4	0.83554006
153	0x3ebc7fd0	0.36816263
154	0xbed333c4	-0.41250432
155	0xc0a9e910	-5.3097
156	0x3f987374	1.1910233
157	0x3f9a87fa	1.2072747
158	0xc0299736	-2.6498542
159	0xbfbc4ef4	-1.4711595
160	0xc0340f68	-2.8134403
161	0xbf837609	-1.0270396
162	0x3f668fc8	0.9006314
163	0x404cca4b	3.199847
164	0x3fbf0382	1.4922945
165	0xc0daf08c	-6.8418636
166	0x403d662f	2.9593618
167	0xbe2d5540	-0.16927052
168	0xbedcf270	-0.43153715
169	0x3fc7980d	1.5593277
170	0xc04416de	-3.0638957
171	0xc01bd458	-2.4348354
172	0x3ec83772	0.391048
173	0xc000e06e	-2.013698
174	0x3fad45a4	1.3536878
175	0xbf0369f4	-0.51333547
176	0x3f27835f	0.6543483
177	0xbf274283	-0.65335864
178	0x402dd592	2.7161603
179	0xbff6ba60	-1.9275627
180	0x3fa7ee36	1.3119571
181	0xc019b9a1	-2.401955
182	0xbf9bec55	-1.2181498
183	0x3f52bf06	0.8232273
184	0xc07ff89e	-3.9995494
185	0xbd1d47b0	-0.038398445
186	0x3f2c95ee	0.67416275
187	0xbfc4ac8f	-1.5365161
188	0xbe7f14a6	-0.2491022
189	0x402f2b0c	2.7370024
190	0xc0bc5af2	-5.8861017
191	0x4024b529	2.5735571
192	0x40736f8e	3.8036838
193	0xbffbbfc5	-1.9667898
194	0x3f9e31d6	1.2358959
195	0x3fe2b894	1.7712579
196	0xbe6c1690	-0.23055482
197	0x3f917906	1.1365058
198	0x402fbd7b	2.74594
199	0x3fad56d0	1.3542118
200	0xc0246360	-2.5685654
201	0x3fcd82b7	1.6055516
202	0xbeeed084	-0.4664346
203	0xc080f482	-4.029847
204	0xc04c69f2	-3.1939664
205	0xc0cc6c32	-6.3882074
206	0x3f1a8a00	0.6036682
207	0x3efbf700	0.49211884
208	0xbe9913b8	-0.29897857
209	0x3d5fbe20	0.054624677
210	0xbe35ba28	-0.17746794
211	0xc01d13a8	-2.4543247
212	0x3fdda94f	1.7317294
213	0xbf8527f7	-1.0402821
214	0xc0543818	-3.3159237
215	0xc0b7a034	-5.738306
216	0x40145634	2.3177614
217	0x3fc63eda	1.5487931
218	0xbf1a3548	-0.6023755
219	0xbf7ff354	-0.99980664
220	0x3fcf6629	1.6203052
221	0x3fe2b1a5	1.7710463
222	0x4020eb74	2.514371
223	0x3fc64175	1.5488726
224	0xc0e5d730	-7.182518
225	0x3ff67acd	1.9256226
226	0xbf7ffa73	-0.9999153
227	0xc0ebae44	-7.3650227
228	0x3fee1258	1.8599348
229	0x3fe0dfd6	1.7568309
230	0xc0af45bc	-5.4772625
231	0x3fd2cd2f	1.6468867
232	0xbe96ed24	-0.294778
233	0xbf3603fa	-0.7109982
234	0x3ff46129	1.9092151
235	0x40148755	2.32076
236	0x3fb2c7f6	1.3967273
237	0x3f9aa106	1.208039
238	0x3fd8a23d	1.6924511
239	0x3fe55ce0	1.7918968
240	0xc024a5f2	-2.5726285
241	0xbe4e8be7	-0.20170556
242	0xc06be656	-3.6859336
243	0xbe68c590	-0.22731614
244	0x3f9fba90	1.2478809
245	0xc062d9a4	-3.5445337
246	0xc0436262	-3.0528798
247	0xc0a090b1	-5.0176625
248	0x3e85f444	0.26162922
249	0x401c3f02	2.4413457
250	0x3f7d8ca6	0.9904274
251	0xbedd65aa	-0.43241626
252	0xc072a676	-3.79141
253	0xc04d1668	-3.2044926
254	0xbfa7218e	-1.3057115
255	0xc0d6f95f	-6.717941
