mobilenet/contraction_1x1_11_bias.npy (npy, 4224 bytes, 1 tensors)

array f4 [1024]
-3.7184913 2.5589962 2.1824942 -2.8700643 2.0886486 1.1501347 2.2165275 3.0477188
0.70589757 2.8231666 0.3075068 -2.2730575 -0.45071733 2.0576239 1.3951046 1.6865802
3.0828404 2.4278026 -7.8396745 3.8089182 3.5610392 3.9359984 0.6620945 -3.2468574
1.2888646 2.392231 -2.3287182 1.0945389 -2.1961458 -3.742339 0.2314403 1.1425855
0.12449801 0.9760131 -1.3747841 -4.5099993 1.8742967 -2.9257193 -1.0099401 1.6232305
-0.32923147 0.54951024 2.4418385 1.3279437 1.1501347 0.45001158 3.2051456 -2.553166
2.6321907 2.7692263 2.2516398 -1.4218588 -5.110279 -4.862595 4.936858 -0.0068187863
3.4059303 1.7427938 -3.6554413 1.5457525 -1.5584257 0.44750327 -0.82449806 -0.6021681
-1.2516005 -1.3826602 1.9727085 -11.441891 7.3916645 5.686822 -1.6814742 0.5352762
-0.2425257 2.285924 -4.025056 2.052493 -2.0440881 2.7804332 -5.00745 -5.4349546
-0.91662323 0.9989208 -1.536078 0.5305594 1.2895186 3.3969538 -0.2719047 1.682078
-0.103728056 0.12952328 1.1620452 -0.6011288 3.3781002 -0.1910884 0.5423813 -1.9173837
0.40957093 5.1567764 -4.8787403 2.1697745 1.1926531 -0.5944139 1.1788983 1.954438
-6.0817533 2.5267825 -0.5680064 2.764589 -2.9471006 -0.3834768 3.3554494 -1.6859344
-0.018624425 0.7186117 -0.8625323 6.4007425 7.42784 -0.75596213 -4.760626 4.2880616
-4.843059 4.566162 3.688747 2.3739195 -2.178349 -1.690186 1.1606191 -0.2962333
0.28420496 -1.2135813 -1.4984487 -1.9474288 2.2356906 3.1561532 3.1304238 3.3748126
-6.274583 3.8102412 3.261521 3.259647 -0.65293837 0.21470952 4.5706396 -0.73985946
7.2632213 -2.0136821 -4.095687 0.6385652 -1.7480525 -4.0489926 2.503527 1.0651324
-0.97861433 3.3701804 -2.1958144 -1.6694808 1.5960552 0.27837467 2.8438158 -2.3931074
2.321308 -1.6777799 -1.6759899 -3.9742534 -1.5219785 2.7228541 5.8971167 0.05341831
-0.52106154 -3.8060074 3.543146 -1.1887347 -0.18805611 1.9709333 0.8220763 5.213241
1.1466724 -5.363657 -0.76912475 0.9009565 3.8991027 -1.7475682 2.5465 -4.9234276
-3.8050385 1.2528315 0.69975567 -4.5237865 -1.8973236 -3.1927848 0.19544184 1.2141172
0.99435985 4.8615227 4.016233 -1.4823819 -0.33484328 1.380765 -3.5195918 -2.7042205
0.6473936 1.9127383 2.2762625 1.7687505 1.7031996 2.4256353 2.24485 -2.397044
0.18751574 2.196961 -0.5774995 0.7889491 1.6025238 -1.3135478 -0.6992254 0.2174882
1.7926488 -3.7996185 3.346076 -1.4778016 3.7194445 2.122077 -0.548488 1.8735123
-3.0189264 -0.054845646 -4.977153 -2.195717 2.2407289 -0.98951006 1.9034534 1.9555863
4.708827 0.07921171 -1.431906 1.7191207 1.5382808 -1.1602304 -2.1729352 -0.3088311
0.5058403 -7.977795 -4.9435945 1.5317595 2.0291636 2.3482969 -3.7539659 -0.042769313
3.366545 5.167942 -0.07343876 -0.83319974 -2.9937987 2.838968 1.363027 3.0744457
00000000: c3fb 6dc0 98c6 2340 fcad 0b40 22af 37c0
00000010: 6bac 0540 9d37 933f 96db 0d40 d30d 4340
00000020: b4b5 343f c3ae 3440 8871 9d3e c679 11c0
00000030: 6cc4 e6be 1cb0 0340 ca92 b23f dce1 d73f
00000040: 424d 4540 1e61 1b40 9dde fac0 51c5 7340
00000050: 11e8 6340 66e7 7b40 067f 293f 83cc 4fc0
00000060: 84f9 a43f 501a 1940 b809 15c0 da19 8c3f
00000070: a78d 0cc0 7b82 6fc0 b0fe 6c3e 3e40 923f
00000080: d0f8 fe3d ffdb 793f edf8 afbf ea51 90c0
00000090: f4e8 ef3f fc3e 3bc0 b845 81bf 04c6 cf3f
000000a0: 0791 a8be b4ac 0c3f 1547 1c40 0ffa a93f
000000b0: 9d37 933f eb67 e63e 1b21 4d40 1267 23c0
000000c0: d075 2840 013b 3140 de1a 1040 78ff b5bf
000000d0: 6887 a3c0 619a 9bc0 befa 9d40 2070 dfbb
000000e0: c3fa 5940 de13 df3f c0f2 69c0 38db c53f
000000f0: 7e7a c7bf 261f e53e 4e12 53bf b027 1abf
00000100: 7234 a0bf 02fb b0bf b681 fc3f fc11 37c1
00000110: 8488 ec40 72fa b540 8c3a d7bf dc07 093f
00000120: a858 78be 944c 1240 42cd 80c0 0c5c 0340
00000130: 57d2 02c0 9ef2 3140 083d a0c0 26eb adc0
00000140: d2a7 6abf 46b9 7f3f 349e c4bf bed2 073f
00000150: f20e a53f b167 5940 1837 8bbe 554e d73f
00000160: 606f d4bd c0a1 043e e6bd 943f 94e3 19bf
00000170: cb32 5840 adac 43be 80d9 0a3f d46c f5bf
00000180: 48b3 d13e 5004 a540 a41e 9cc0 96dd 0a40
00000190: dba8 983f 822b 18bf 24e6 963f 062b fa3f
000001a0: b99d c2c0 ceb6 2140 de68 11bf 07ef 3040
000001b0: 4c9d 3cc0 1257 c4be afbf 5640 b3cc d7bf
000001c0: 4092 98bc f0f6 373f ebce 5cbf e2d2 cc40
000001d0: deb0 ed40 bc86 41bf 0c57 98c0 cd37 8940
000001e0: 57fa 9ac0 001e 9240 6e14 6c40 4cee 1740
000001f0: 126a 0bc0 0458 d8bf 2b8f 943f e4ab 97be
00000200: 5083 913e a256 9bbf 2bcd bfbf 5945 f9bf
00000210: 8e15 0f40 6afe 4940 dd58 4840 eefc 5740
00000220: 62c9 c8c0 feda 7340 c3bc 5040 0e9e 5040
00000230: f826 27bf d0dc 5b3e ae42 9240 6e67 3dbf
00000240: 4f6c e840 2be0 00c0 de0f 83c0 0279 233f
00000250: 2fc0 dfbf 5991 81c0 c939 2040 4256 883f
00000260: 7886 7abf 09b1 5740 3988 0cc0 8cb1 d5bf
00000270: 894b cc3f 2087 8e3e 1401 3640 ac28 19c0
00000280: 4f90 1440 7ec1 d6bf d686 d6bf 2b5a 7ec0
00000290: 31d0 c2bf 3e43 2e40 2eb5 bc40 28cd 5a3d
000002a0: 4a64 05bf a095 73c0 e7c2 6240 7528 98bf
000002b0: c891 40be 8b47 fc3f 9873 523f dfd2 a640
000002c0: 29c6 923f 14a3 abc0 5ce5 44bf 16a5 663f
000002d0: e68a 7940 51b0 dfbf dbf9 2240 b88c 9dc0
000002e0: c085 73c0 c85c a03f 3023 333f dcc2 90c0
000002f0: 80db f2bf 9656 4cc0 e821 483e 3168 9b3f
00000300: 5e8e 7e3f 9891 9b40 fb84 8040 b1be bdbf
00000310: 9470 abbe e8bc b03f fe40 61c0 f311 2dc0
00000320: 96bb 253f 9cd4 f43f 49ae 1140 6b66 e23f
00000330: 7202 da3f 9c3d 1b40 9fab 0f40 2b69 19c0
00000340: 2004 403e 029b 0c40 02d7 13bf 91f8 493f
00000350: 801f cd3f 5622 a8bf 7000 33bf 3ab5 5e3e
00000360: 8475 e53f f32c 73c0 1c26 5640 9a28 bdbf
00000370: 610b 6e40 1cd0 0740 b669 0cbf 40cf ef3f
00000380: 1736 41c0 d4a5 60bd d644 9fc0 a186 0cc0
00000390: 1a68 0f40 8850 7dbf 5ca4 f33f a750 fa3f
000003a0: b6ae 9640 c039 a23d b248 b7bf 260c dc3f
000003b0: 63e6 c43f 6e82 94bf 5f11 0bc0 1c1f 9ebe
000003c0: c07e 013f 194a ffc0 ed31 9ec0 b210 c43f
000003d0: d1dd 0140 7f4a 1640 fa40 70c0 e02e 2fbd
000003e0: 7975 5740 c85f a540 1067 96bd 944c 55bf
000003f0: 669a 3fc0 a7b1 3540 ab77 ae3f b8c3 4440
