mobilenet/depthwise_nxn_11_bias.npy (npy, 2176 bytes, 1 tensors)

array f4 [512]
-0.37702322 8.836212 6.0185323 8.435511 -0.8943449 -0.019870102 -0.124898314 4.177982
-5.9866176 4.1585827 -0.015932918 5.2743545 4.3971024 4.887599 3.3864226 4.160714
0.015058756 4.8169093 7.639655 -0.1977346 3.589717 0.001200974 0.01926589 5.887817
-0.23856479 -1.769707 -0.2884928 -5.8174562 5.3041396 -0.009821534 -1.4546764 -0.007912993
-1.9000442 -0.7962109 -0.48498622 -0.9089908 4.017151 7.131834 -2.515925 3.737155
5.7258215 5.5624495 8.283022 -0.009543091 0.017111719 -0.6095731 5.1767488 -0.022314489
-0.07877636 4.316898 -0.0011273026 4.5193434 -1.4887195 -1.3844621 0.005803108 5.158872
7.5761085 -0.0182378 4.2062984 4.7588153 5.19207 -0.6034193 4.895091 5.4232244
-1.0910232 -6.636531 5.687343 5.681217 4.5255675 -2.5558586 11.416826 6.243637
4.9516897 -0.007882535 -2.2093725 -0.9587335 -0.4867702 -0.0014249682 6.1112466 -0.0045356154
-0.9341102 5.2003384 -3.26888 0.047233343 5.7861147 4.070809 4.983267 0.5413581
-0.68893987 -0.20961425 3.710464 -0.00013411045 -0.92580926 0.0009204149 5.1438313 -0.026259989
-0.354096 5.389823 5.1794157 7.202772 -1.017268 1.6102926 -0.007108569 0.0081961155
0.14361459 3.4817266 -0.016197413 8.674274 -0.0027236938 2.9762363 5.790926 6.190827
-0.3041102 -0.18812498 6.210515 3.4824433 0.12387782 4.5866265 6.1180186 10.495977
3.4722567 5.9353704 5.226667 4.3009267 8.565579 7.993422 -0.013524473 -0.48535943
-0.79956853 -0.28828695 -0.3525347 3.0909133 5.042969 -0.052488685 5.128707 -0.6985742
-1.4364663 0.16607788 -0.42766106 13.747387 4.13725 2.7891483 4.9049425 8.990931
4.1070538 -2.4728947 -0.011388361 7.3550997 0.017414123 6.9181857 -0.53543544 3.6386094
4.8463326 -0.009251773 0.16553652 6.052309 -0.023340672 -0.37138933 3.6447487 7.7352405
-0.009109378 0.0028461814 -3.3292878 3.317456 -0.7636942 7.577325 -2.660748 -0.95616174
15.032854 5.1327863 -3.967483 3.823999 -0.010313302 -0.02845031 -1.5544751 4.8638287
-0.029767841 -3.220669 3.6887717 -0.41756022 -0.24176738 4.0189147 -0.3576355 7.9731793
-0.01360625 -0.018645644 -2.1519537 -0.9134598 5.090313 -1.3347199 0.4339614 0.1898605
4.191906 -0.020864159 7.4203873 8.895671 -0.4258571 0.000954777 -0.74885637 7.888543
5.293424 -0.020636976 5.5961494 5.9055715 3.9430637 -0.5859046 5.8261895 -6.278133
5.861775 0.045125604 3.8787422 -3.4188502 5.9397993 1.2149359 6.098725 -0.1204924
9.1740265 -0.66662776 -0.011734605 -0.03321737 2.3865693 -0.20004484 -5.0987544 7.4016685
6.35233 8.559157 -2.907355 7.112912 4.654962 0.014730573 6.5950284 6.292081
-1.0123923 5.705881 6.236764 5.685796 4.299083 4.72863 -1.8947084 -0.20417011
-4.5822897 -1.4475358 6.584778 -1.5950344 5.717802 1.3149834 4.4106236 -0.13614754
-7.4990287 5.776738 9.930569 5.700846 -0.12215108 10.023709 5.6194983 4.703574
00000000: 3009 c1be 2061 0d41 d197 c040 daf7 0641
00000010: caf3 64bf a0c6 a2bc b0ca ffbd 07b2 8540
00000020: 5f92 bfc0 1c13 8540 c085 82bc 83c7 a840
00000030: 10b5 8c40 3667 9c40 26bb 5840 9224 8540
00000040: 00b9 763c 1f24 9a40 0e78 f440 f07a 4abe
00000050: ecbd 6540 006a 9d3a 80d3 9d3c ff68 bc40
00000060: 544a 74be c285 e2bf 54b5 93be 9a28 bac0
00000070: 83bb a940 80ea 20bc d632 babf 80a5 01bc
00000080: a634 f3bf 7ad4 4bbf 1d50 f8be 9fb3 68bf
00000090: 808c 8040 fc37 e440 ea04 21c0 8c2d 6f40
000000a0: ee39 b740 96ff b140 4287 0441 a05a 1cbc
000000b0: e02d 8c3c fc0c 1cbf eda7 a540 e0cc b6bc
000000c0: 8055 a1bd 0724 8a40 00c2 93ba 769e 9040
000000d0: 5c8e bebf 0e36 b1bf 0028 be3b 7b15 a540
000000e0: 7b6f f240 7067 95bc ff99 8640 3748 9840
000000f0: 7025 a640 b079 1abf 96a4 9c40 0e8b ad40
00000100: a6a6 8bbf 765e d4c0 b7fe b540 88cc b540
00000110: 73d1 9040 3093 23c0 52ab 3641 e0cb c740
00000120: 3e74 9e40 c025 01bc 5c66 0dc0 8f6f 75bf
00000130: f239 f9be 00c6 baba 558f c340 809f 94bb
00000140: d921 6fbf 2c69 a640 5435 51c0 c077 413d
00000150: da27 b940 1144 8240 ec76 9f40 7296 0a3f
00000160: 5d5e 30bf 1ea5 56be 3e78 6d40 00a0 0cb9
00000170: d601 6dbf 0048 713a 449a a440 301f d7bc
00000180: 124c b5be 6e79 ac40 c6bd a540 1c7d e640
00000190: d635 82bf 111e ce3f 00ef e8bb 0049 063c
000001a0: b40f 133e 9cd4 5e40 70b0 84bc d4c9 0a41
000001b0: 0080 32bb a87a 3e40 444f b940 411b c640
000001c0: 55b4 9bbe d6a3 40be 8abc c640 5ae0 5e40
000001d0: a8b3 fd3d a5c5 9240 cfc6 c340 86ef 2741
000001e0: 7439 5e40 8eee bd40 db40 a740 31a1 8940
000001f0: 9d0c 0941 1dca ff40 c095 5dbc 0881 f8be
00000200: 86b0 4cbf 599a 93be 6e7f b4be 86d1 4540
00000210: 0160 a140 60fe 56bd 5e1e a440 c2d5 32bf
00000220: 21de b7bf 5210 2a3e 64f6 dabe 4cf5 5b41
00000230: 5a64 8440 6881 3240 4af5 9c40 dada 0f41
00000240: fc6c 8340 e843 1ec0 4096 3abc fa5c eb40
00000250: 10a8 8e3c c761 dd40 4c12 09bf fade 6840
00000260: 2815 9b40 c094 17bc 6882 293e 84ac c140
00000270: f034 bfbc be26 bebe 9043 6940 1787 f740
00000280: 803f 15bc 0087 3a3b 0d13 55c0 3351 5440
00000290: 7781 43bf 7279 f240 b249 2ac0 04c7 74bf
000002a0: 9286 7041 c93f a440 3eeb 7dc0 66bc 7440
000002b0: 20f9 28bc a010 e9bc 0af9 c6bf 7ca4 9b40
000002c0: b0db f3bc 711f 4ec0 d614 6c40 74ca d5be
000002d0: de91 77be f39a 8040 001c b7be 4924 ff40
000002e0: c0ec 5ebc c0be 98bc 9cb9 09c0 80d8 69bf
000002f0: d8e3 a240 1ad8 aabf 3030 de3e ca6a 423e
00000300: 1824 8640 50eb aabc d073 ed40 ab54 0e41
00000310: f109 dabe 004a 7a3a 0db5 3fbf f26e fc40
00000320: bb63 a940 e00e a9bc a813 b340 71fa bc40
00000330: 285b 7c40 d8fd 15bf 2570 ba40 77e6 c8c0
00000340: a993 bb40 a0d5 383d 503d 7840 71ce 5ac0
00000350: d612 be40 0583 9b3f c128 c340 b8c4 f6bd
00000360: d0c8 1241 1ea8 2abf 8042 40bc f00e 08bd
00000370: 8dbd 1840 8ed8 4cbe ff28 a3c0 78da ec40
00000380: 4a46 cb40 4ff2 0841 1b12 3ac0 fa9c e340
00000390: 73f5 9440 8058 713c 790a d340 ba58 c940
000003a0: 1296 81bf 9496 b640 9293 c740 0af2 b540
000003b0: 1792 8940 f050 9740 ce85 f2bf f811 51be
000003c0: 1ea2 92c0 da48 b9bf 80b6 d240 162a ccbf
000003d0: 3cf8 b640 6051 a83f d423 8d40 436a 0bbe
000003e0: 0bf8 efc0 0adb b840 9ce3 1e41 556d b640
000003f0: 582a fabd 1d61 2041 eed2 b340 ae83 9640
