mobilenet/depthwise_nxn_6_bias.npy (npy, 2176 bytes, 1 tensors)

array f4 [512]
3.5799549 -0.64126074 -2.6627743 5.350336 2.6056342 1.1186855 -3.3860528 1.9110411
0.010206461 3.945672 -0.49366874 4.5954266 0.3569328 3.5692961 -0.6899862 4.7881126
3.076454 0.00928691 -2.5548673 0.58785003 3.040319 0.72703695 1.9508504 0.15589237
1.1249518 -0.0062310398 0.49459463 0.45249617 8.016087 3.0792336 0.986607 4.7724047
0.749145 -0.032225847 -3.3260212 0.26733246 -2.6385016 1.498742 0.25259042 5.1447525
0.010567009 -0.22129299 -2.1443734 6.581753 0.42866564 4.591611 -0.6959434 2.28086
0.055202186 1.7082273 2.1507916 5.639759 3.403067 0.73587596 -1.9337269 0.39686632
-4.094577 0.08831358 0.008998215 2.6564083 1.8149763 0.35903788 2.8038795 -1.5309632
1.285969 0.3743503 2.3153222 -0.33794874 0.19422293 4.820373 -0.0023627132 3.117702
-0.15165159 2.4072523 2.312583 -2.167087 2.1984308 0.31389236 -0.09731826 5.2222905
5.438553 2.9240713 0.3381397 2.8742466 2.3981056 2.0237136 -1.2550671 -0.010539949
1.0796192 0.80378294 -0.11479198 1.3699951 -0.15842497 -2.211362 -0.59986454 -0.1286155
-0.041220307 -0.9728152 -0.18108472 -0.33672136 3.1997998 0.39860845 0.45026588 3.6861126
0.12521285 1.8559637 13.928835 0.6378516 0.44417685 -0.004633218 0.2760285 1.9076774
-2.2884142 5.9303656 2.8893063 3.0367393 0.4535348 0.061195552 2.0035205 -0.31189427
-0.51473165 3.497246 1.6892211 -2.6075044 3.330606 0.49115786 -1.9002593 0.10238361
5.1483607 0.7925102 1.2106421 -1.5376393 2.7510862 3.3581178 0.5471311 2.2773588
0.0005887151 3.0916395 -0.8146208 0.19275367 -0.19959712 8.522547 6.324664 0.96075106
2.9703617 2.0010092 -1.95597 -0.67046684 0.28076363 4.397437 -0.412745 2.4951982
3.5328395 -0.013549507 1.9528238 3.0481071 -1.9350666 0.99147016 0.6779856 1.4328691
1.0393213 4.587137 -0.36193353 2.7667336 1.5441428 3.1664464 0.52277017 0.56878805
2.1103249 -0.5715098 0.17718711 -0.90364605 -4.44001 1.1960049 -6.1288986 0.086923085
-0.25000978 2.6450932 -3.018735 1.8660576 2.015913 -0.18700111 4.083706 1.1234138
-0.084430486 3.740001 3.9807835 0.14949091 -0.3004794 2.7789083 0.034183323 1.2943029
0.6946783 -2.792779 1.8564371 2.8300397 1.9559495 0.03484428 0.1374011 -3.0017047
-0.030498922 0.7442725 3.6089745 2.1245477 -2.3832245 -1.6620611 2.751597 3.2012968
0.20080885 7.2168183 -0.16482294 0.043177247 -2.1578038 0.23045047 -0.076827765 0.36158714
0.043198407 -2.4454176 -0.6892487 -1.9166416 3.5336766 3.173617 0.047525644 0.17454696
-4.648264 1.761077 0.029705346 3.014741 3.9326277 -0.4151554 0.30575144 1.8559873
-0.70165336 -2.9375086 0.17430198 0.21813676 0.32733887 0.33131382 1.8415987 -0.00984323
-1.2645824 -1.953123 2.1980293 0.4515532 1.7473823 -2.3536572 4.335162 5.434806
0.15258773 1.3060787 0.13867295 3.7379808 0.59425074 -2.7576199 0.017852843 -4.017796
00000000: fb1d 6540 aa29 24bf e56a 2ac0 f435 ab40
00000010: b6c2 2640 1631 8f3f 17b5 58c0 ff9c f43f
00000020: 0039 273c e485 7c40 26c2 fcbe bc0d 9340
00000030: e5bf b63e 596f 6440 f0a2 30bf 3838 9940
00000040: 9fe4 4440 2028 183c f282 23c0 577d 163f
00000050: 9694 4240 181f 3a3f 77b5 f93f 40a2 1f3e
00000060: 6cfe 8f3f c02d ccbb 823b fd3e 94ad e73e
00000070: e441 0041 2a12 4540 4792 7c3f 8ab7 9840
00000080: f7c7 3f3f 40ff 03bd 88dd 54c0 cddf 883e
00000090: 36dd 28c0 c7d6 bf3f 8853 813e d0a1 a440
000000a0: 4021 2d3c a19a 62be 6a3d 09c0 b89d d240
000000b0: 107a db3e 7aee 9240 5929 32bf 9cf9 1140
000000c0: b01b 623d 31a7 da3f 92a6 0940 e878 b440
000000d0: dacb 5940 5e62 3c3f 5d84 f7bf 1032 cb3e
000000e0: c606 83c0 c0dd b43d 406d 133c 9802 2a40
000000f0: 2551 e83f d0d3 b73e c372 3340 9af6 c3bf
00000100: a29a a43f d8aa bf3e 3d2e 1440 9e07 adbe
00000110: 60e2 463e 7f40 9a40 c0d7 1abb 6e88 4740
00000120: 8e4a 1bbe 6c10 1a40 5c01 1440 8eb1 0ac0
00000130: 17b3 0c40 80b6 a03e cc4e c7bd 011d a740
00000140: a008 ae40 fc23 3b40 a620 ad3e a8f3 3740
00000150: 907a 1940 8684 0140 0aa6 a0bf c0af 2cbc
00000160: f630 8a3f b8c4 4d3f 0f18 ebbd 005c af3f
00000170: 283a 22be f486 0dc0 b990 19bf c8b3 03be
00000180: a0d6 28bd 6b0a 79bf 466e 39be be66 acbe
00000190: 85c9 4c40 6816 cc3e 4089 e63e 45e9 6b40
000001a0: cc37 003e 3890 ed3f 82dc 5e41 3e4a 233f
000001b0: 266b e33e 40d2 97bb 9c53 8d3e c62e f43f
000001c0: 6175 12c0 8ec5 bd40 65ea 3840 f059 4240
000001d0: b735 e83e 30a8 7a3d ae39 0040 9bb0 9fbe
000001e0: 74c5 03bf e1d2 5f40 6638 d83f 5ae1 26c0
000001f0: a628 5540 0b79 fb3e b23b f3bf 80ae d13d
00000200: 5fbf a440 f3e1 4a3f 52f6 9a3f 5dd1 c4bf
00000210: cc11 3040 67eb 5640 c910 0c3f 3fc0 1140
00000220: 0054 1a3a 6cdd 4540 fd8a 50bf 3861 453e
00000230: 3063 4cbe 5a5c 0841 a663 ca40 c8f3 753f
00000240: 681a 3e40 8910 0040 3a5d fabf b7a3 2bbf
00000250: 40c0 8f3e ceb7 8c40 5053 d3be 54b1 1f40
00000260: 0b1a 6240 c0fe 5dbc 21f6 f93f 3014 4340
00000270: 43b0 f7bf fdd0 7d3f 7790 2d3f 4168 b73f
00000280: 7b08 853f d4c9 9240 5a4f b9be 2a12 3140
00000290: 79a6 c53f 0fa7 4a40 44d4 053f 189c 113f
000002a0: 900f 0740 774e 12bf 8a70 353e 5955 67bf
000002b0: 9014 8ec0 b016 993f f01f c4c0 bb04 b23d
000002c0: 4801 80be 3549 2940 f432 41c0 fada ee3f
000002d0: b804 0140 387d 3fbe b8ad 8240 06cc 8f3f
000002e0: e4e9 acbd 2d5c 6f40 28c5 7e40 2514 193e
000002f0: 70d8 99be a2d9 3140 d003 0c3d b8ab a53f
00000300: 70d6 313f e4bc 32c0 bb9f ed3f 5f1f 3540
00000310: 8e5c fa3f e0b8 0e3d e0b2 0c3e ee1b 40c0
00000320: e0d8 f9bc a488 3e3f 70f9 6640 97f8 0740
00000330: c086 18c0 6bbe d4bf 2a1a 3040 0ce2 4c40
00000340: d6a0 4d3e 2df0 e640 58c7 28be a0da 303d
00000350: 7519 0ac0 35fb 6b3e e057 9dbd f321 b93e
00000360: d0f0 303d b981 1cc0 9a72 30bf 8354 f5bf
00000370: c227 6240 8a1c 4b40 40aa 423d 70bc 323e
00000380: 94be 94c0 f96a e13f a058 f33c 84f1 4040
00000390: 2cb0 7b40 408f d4be 748b 9c3e fe90 ed3f
000003a0: 8e9f 33bf 2400 3cc0 387c 323e 3e5f 5f3e
000003b0: f698 a73e f7a1 a93e 82b9 eb3f 8045 21bc
000003c0: d6dd a1bf efff f9bf 83ac 0c40 fb31 e73e
000003d0: 39aa df3f 52a2 16c0 a6b9 8a40 eee9 ad40
000003e0: f53f 1c3e 962d a73f 4800 0e3e 143b 6f40
000003f0: d120 183f d87c 30c0 2040 923c c991 80c0
