mobilenet/depthwise_nxn_5_bias.npy (npy, 1152 bytes, 1 tensors)

array f4 [256]
0	0xbc47f100	-0.012203455
1	0x3d0dcb80	0.0346179
2	0x40f68470	7.7036667
3	0xbe8cc930	-0.27497244
4	0x3d50d9b0	0.050988853
5	0x3d937840	0.0720067
6	0x40d9f078	6.810604
7	0x40d95476	6.79156
8	0x3e3da8a8	0.18521369
9	0x40ebbca1	7.366776
10	0x3dccb1a8	0.09994823
11	0x3c87be00	0.016570091
12	0xbf8804df	-1.0626487
13	0xbb9c4800	-0.0047693253
14	0x40a1bff7	5.054683
15	0x40d1b76a	6.5536394
16	0x40d0bacd	6.522803
17	0x40dc7fa0	6.890579
18	0x40bf3202	5.9748545
19	0xbb116500	-0.0022185445
20	0x410b4736	8.7048855
21	0x3e9e7262	0.30946642
22	0x412a4546	10.641912
23	0xbc30e480	-0.010796666
24	0x408c56f7	4.385616
25	0xbbbb3080	-0.0057125688
26	0xc05e0676	-3.4691443
27	0x409d7c81	4.921448
28	0x3f249f02	0.64305127
29	0x410b9599	8.724023
30	0x40579088	3.3681965
31	0x4090f31c	4.5296764
32	0x3e2e4580	0.170187
33	0x40c0ac7a	6.0210543
34	0x40d1beea	6.554555
35	0xc036166a	-2.845118
36	0x3d073c20	0.033016324
37	0x40bc3cf0	5.8824387
38	0xbcceb580	-0.02523303
39	0x411a6ad2	9.651079
40	0xbfb0afa4	-1.3803601
41	0x40ca9b30	6.331444
42	0x3e76bb2c	0.24094838
43	0x411dee38	9.870659
44	0xbf3fe22d	-0.7495449
45	0x40a6c826	5.211932
46	0x3f2aa79c	0.66662
47	0x40b19e96	5.5506086
48	0x3dd5bf10	0.10436833
49	0xbeb05de6	-0.3444664
50	0xbdfab348	-0.122412264
51	0x40862ef5	4.193232
52	0x40b878d1	5.764748
53	0x3ea35788	0.3190272
54	0x40bdf768	5.936451
55	0xbd949260	-0.07254481
56	0x3efecd9c	0.49766243
57	0x40b528da	5.661237
58	0x3d4d75b0	0.050161064
59	0xc040487e	-3.0044246
60	0x4118a97d	9.541379
61	0x40e57cb6	7.1714735
62	0x409d2284	4.9104633
63	0xbf14eb48	-0.5817151
64	0xc058b02a	-3.3857522
65	0x3d62f440	0.055408716
66	0x39aa8000	0.00032520294
67	0x40eb0db0	7.345421
68	0x40868e97	4.204906
69	0x40e07668	7.014454
70	0x412a95f2	10.661608
71	0x3f13e4a6	0.57770765
72	0x4094952a	4.6432085
73	0xbd404220	-0.04693806
74	0x40f8ef02	7.7791758
75	0x3ff4abd1	1.9114934
76	0x3cebb320	0.028771937
77	0xbc679880	-0.01413548
78	0xbff7b92a	-1.9353383
79	0x3ddfa4ac	0.109200805
80	0x40977011	4.73243
81	0x408dc7ab	4.4306235
82	0x409aeef3	4.8416686
83	0x408e92f3	4.455438
84	0x40ccdb5b	6.401777
85	0xbdd3d1c8	-0.10342747
86	0x3d51e080	0.05123949
87	0xbc3feec0	-0.011714637
88	0x410c12ef	8.754622
89	0xbdefc400	-0.11707306
90	0x40bb3dd6	5.8512983
91	0x3dba0d20	0.09084535
92	0x41103fe9	9.015603
93	0x41103632	9.013231
94	0x41304956	11.017904
95	0xbfdc7c6c	-1.722547
96	0x4062ce2a	3.5438333
97	0x40333386	2.8000197
98	0x40967d45	4.7027917
99	0x3e53d768	0.2068764
100	0xbdba63c0	-0.09101057
101	0x3d5c8fa0	0.05384791
102	0x40a1d467	5.057178
103	0xbfb7a212	-1.4346335
104	0xbfd469d5	-1.6594797
105	0x408ab1e0	4.3342133
106	0x41200962	10.002291
107	0xbb9ffd00	-0.004882455
108	0x40d01e58	6.503704
109	0xbc93e440	-0.018053174
110	0x3e16e980	0.1473751
111	0x40842478	4.1294518
112	0x414785b0	12.470139
113	0x3ed34760	0.41265392
114	0x3cb73280	0.022362947
115	0x40ea9080	7.330139
116	0x3c04e080	0.008110166
117	0xbc84e040	-0.016220212
118	0xbff1622d	-1.8858086
119	0x40a3db0f	5.1204906
120	0x3b284e00	0.0025681257
121	0x3d87d4c0	0.06632376
122	0x40997682	4.7957163
123	0x3aaec000	0.0013332367
124	0x41203fc6	10.01557
125	0x40d36df8	6.607174
126	0x40df259c	6.973341
127	0x410e7b89	8.90516
128	0x3d643580	0.055715084
129	0x4123d9c3	10.2406645
130	0x40da7a0d	6.827399
131	0x3ed7e10a	0.4216388
132	0xbfd6f382	-1.6793063
133	0x40d7993e	6.7374563
134	0x3e739bb8	0.2378987
135	0x3caad240	0.020852208
136	0x414678ed	12.404523
137	0x3e199c38	0.15000999
138	0xbe51e208	-0.2049638
139	0x407259f8	3.7867413
140	0x3de046e4	0.10951021
141	0xc08fd791	-4.4950643
142	0xbe8f6dda	-0.28013498
143	0x40cdabb2	6.427209
144	0x40ad2d66	5.411792
145	0x40bb47f9	5.8525357
146	0x3e950268	0.29103398
147	0x3d262120	0.040558934
148	0x40a3bbfd	5.116698
149	0xbbf2d000	-0.0074100494
150	0xbec36e3a	-0.38170034
151	0xbd807210	-0.06271756
152	0x3bc83100	0.006109357
153	0xbd86a430	-0.06574285
154	0x3d45dcc0	0.048306227
155	0x40f5c4f2	7.680291
156	0x40900086	4.500064
157	0x40d7fa84	6.7493305
158	0x40a1fdfc	5.062254
159	0x41089ff2	8.539049
160	0x3e456774	0.19277745
161	0xc0029628	-2.0404148
162	0x40ee483c	7.4463177
163	0x40ac9c2d	5.3940644
164	0x40d14c7b	6.540586
165	0xbde27c90	-0.11058915
166	0x40afc5ee	5.4929113
167	0x3c820080	0.015869379
168	0x40e7ef8d	7.247992
169	0x40ecd541	7.401032
170	0x3dd93f78	0.10607809
171	0x4082d5c2	4.0885935
172	0xc0287d6e	-2.6326556
173	0x3eaec71c	0.34136283
174	0xbf5f0c1b	-0.87127846
175	0x3dbdfd50	0.09276831
176	0x408f5e7a	4.480283
177	0x409c47e6	4.8837767
178	0x40b656fc	5.698118
179	0x3d5c3260	0.05375898
180	0x40a38414	5.109873
181	0x4092d36f	4.58831
182	0x3d3a8c20	0.04554379
183	0x3c837380	0.016046286
184	0xbc55b840	-0.013044417
185	0xc07e0093	-3.968785
186	0x418347ce	16.41006
187	0x3d0dc1a0	0.034608483
188	0xbf1b37a1	-0.6063176
189	0x3b0adc00	0.002118826
190	0x3e9020b2	0.28149945
191	0x40e20d3b	7.064115
192	0xc0b1cfa8	-5.5565987
193	0xc0fb8bbe	-7.8608084
194	0x3e9e5271	0.30922273
195	0x407ffaa0	3.999672
196	0x3e8eb8f3	0.2787548
197	0x40967744	4.702059
198	0x40c2eb8b	6.091253
199	0x40ba7e03	5.8278823
200	0xbce7dcc0	-0.028303504
201	0x41292794	10.572163
202	0x3cb5db20	0.022199214
203	0x3e69df50	0.22839093
204	0x4096503e	4.697295
205	0xbff010a3	-1.8755077
206	0x410a845e	8.657316
207	0x40c41afd	6.1282945
208	0x40a37c81	5.108948
209	0xbd0dd740	-0.034629107
210	0x3e3e80a4	0.1860376
211	0x410f0565	8.938817
212	0x410f4574	8.954456
213	0x40dec136	6.9610853
214	0xbd744890	-0.059639513
215	0x3c840b00	0.016118526
216	0x415a9fb6	13.663992
217	0xbc6b7900	-0.01437211
218	0x40c818ba	6.2530184
219	0x40ba847a	5.8286715
220	0x4110ef74	9.05846
221	0x41a809c6	21.004772
222	0xc02799bc	-2.6187582
223	0x41902e48	18.022598
224	0x407f6ce9	3.9910223
225	0x3d555028	0.052078396
226	0x406ab24c	3.6671324
227	0xbcecc7a0	-0.028903782
228	0xbda04624	-0.07825878
229	0x40a92b17	5.28651
230	0x3c905f80	0.017623663
231	0x40a68502	5.2037363
232	0x3ff03d5c	1.8768725
233	0x40cfb5c1	6.4909368
234	0x40cce73a	6.403226
235	0x4101c149	8.109689
236	0x414b4b84	12.705936
237	0x3c80b180	0.015709639
238	0x41a452db	20.540457
239	0x3eaf4450	0.34231806
240	0x3ea6eec5	0.32604042
241	0x40b2a353	5.582437
242	0xbc4dfc00	-0.0125722885
243	0x4055b4a4	3.3391504
244	0x4088c23e	4.273711
245	0x41052000	8.3203125
246	0xbf11f8e4	-0.570204
247	0x408ce3da	4.402814
248	0x40edeccd	7.4351563
249	0x40c68cf0	6.2047043
250	0xc052e7fc	-3.2954092
251	0x40ad8864	5.4228992
252	0x40e145e6	7.0397825
253	0xbe989488	-0.2980082
254	0x40bd42ea	5.914418
255	0x3b76c700	0.0037655234
