mobilenet/depthwise_nxn_3_bias.npy (npy, 640 bytes, 1 tensors)

array f4 [128]
00000000: b88d 4f3e 1087 03be 6991 d3be 8072 de40
00000010: 2898 da40 e0be c23d a01b 1a3d 0b50 0c41
00000020: b48e f13e e061 c73d 6006 f53d a881 9440
00000030: 76e5 c040 e232 053f 60da 813d eef0 ae40
00000040: 20d6 e83e 3b78 a741 3c1c b940 502d c8be
00000050: b085 c83d 70d8 3a3e 0a93 b340 44d7 1d41
00000060: ac72 9a40 8090 a93d d257 3041 c2af a940
00000070: 0c38 7440 0033 133d 1464 40bd b0be fc3e
00000080: a0fa e240 f844 2ac0 11c5 1f41 60cc 9e40
00000090: 80e7 e03c 3b7c b441 2c5e 30bf e196 aa40
000000a0: c329 3f41 ba44 b640 20bb c73d 407b 6c3d
000000b0: b2d6 d640 a84a bc40 98e1 fb3e f06a 643e
000000c0: a0b6 b43d a03d ec3d 0841 893e 1ad6 8640
000000d0: 0c84 6641 db06 c640 e423 c03f 8095 1ebc
000000e0: 2029 31bd c5ce ef40 b766 d140 60bd ba3e
000000f0: 78e3 f9be 40a2 1b3d 40b4 7a3d 40c6 083d
00000100: 8042 17bd 6ea9 d6bf c6da 1641 f8a3 f8be
00000110: e04e ac3d a26d 1641 8351 e040 b897 633e
00000120: a4dc b840 9c32 b0be 4643 09bf c894 d740
00000130: 665c 0841 a005 913c 3266 ad40 18d9 3d3e
00000140: 00dc 393e ad1b c0be 30df e340 5254 9140
00000150: 005e f23c 7718 7641 ec37 a140 1d5f 1941
00000160: 552d c140 60d7 dbbd 406e 993d c02a 4a3c
00000170: 60cb 73bd 7ced 6b40 7013 ef3d 7e32 143f
00000180: b87d 9b40 0f4e a040 5daa 9640 a2eb b140
00000190: 24ae a940 c599 9340 2803 483e e2de 1441
000001a0: 53c8 0341 2a01 bd40 7f76 9641 8db4 8e40
000001b0: 1478 d740 a069 02bd 958e cd40 f1e6 8b3e
000001c0: 6217 2741 625c 6fbf ac79 b940 80f0 a5be
000001d0: 8c3c e040 f01d cfbc c049 963c 20b4 923e
000001e0: 3354 9c40 f1b6 5841 e0e6 963d 8c5c 4cbf
000001f0: b8e6 003f 805a ac3c 1c4e ff40 8038 873d
0.20268905 -0.12844491 -0.41321877 6.951477 6.8310738 0.09509063 0.037624 8.769542
0.47179186 0.09735465 0.119641066 4.640827 6.0280104 0.52030766 0.0634048 5.4669104
0.45475864 20.933706 5.7846966 -0.3909707 0.09791124 0.18246627 5.611699 9.865055
4.826498 0.08279514 11.0214405 5.302705 3.8159208 0.03593731 -0.046970442 0.49364233
7.093094 -2.6604595 9.985612 4.962448 0.027454138 22.56066 -0.68893695 5.330918
11.947696 5.6958895 0.09752488 0.057734728 6.713708 5.8841133 0.49195552 0.22306418
0.088238955 0.115351915 0.26807427 4.2136354 14.407238 6.188337 1.5010953 -0.009679198
-0.04325211 7.4939904 6.5437884 0.36472607 -0.48806357 0.03799653 0.061207056 0.03339219
-0.036928654 -1.6770456 9.4284115 -0.48562598 0.08413482 9.401766 7.00995 0.22225845
5.7769337 -0.34413612 -0.53618276 6.736912 8.522558 0.017702878 5.418725 0.18539846
0.1815033 -0.37521115 7.1209946 4.541543 0.029585838 15.380973 5.0380764 9.585721
6.0367837 -0.10734439 0.07491732 0.012339294 -0.059520125 3.68637 0.11673629 0.57889545
4.8590965 5.0095286 4.7082963 5.560014 5.3025074 4.6125207 0.19532454 9.304415
8.236407 5.906392 18.80786 4.45954 6.733408 -0.031839013 6.423655 0.27324632
10.443209 -0.9350034 5.7961025 -0.3241005 7.007391 -0.02528283 0.018345714 0.2865305
4.885278 13.544663 0.07368255 -0.79828715 0.5035205 0.021039248 7.978285 0.066025734
