mobilenet/depthwise_nxn_10_bias.npy (npy, 2176 bytes, 1 tensors)

array f4 [512]
00000000: 229e b9bf 3b78 8040 4002 a340 652c 11c0
00000010: effe 5140 9021 143e 4264 9040 1507 b540
00000020: 3b86 9e40 eb65 0f40 cd0d 4abf e08a e5bf
00000030: 2c4f 8cc0 b63d 1b40 da08 a0bf eb84 42c0
00000040: cb64 3040 8065 d3c0 42a1 0ac0 a855 7e40
00000050: ddb8 7c40 2efe ecbf 7831 8440 200e 3940
00000060: 23fd a940 2099 a3c0 48d5 9840 a171 8f40
00000070: 6922 f2bf 69f7 3d40 9f9c 3a40 7643 7940
00000080: 5999 8340 d272 d9bf 20a2 7d41 714c 06c0
00000090: 1469 5abe dce1 1d40 6da5 8e40 2945 8f40
000000a0: 8047 27c0 78c2 61c0 7df5 8b40 56f6 5cc0
000000b0: 7e1d 6bbd aef3 9a40 98ec 4d40 f967 7f40
000000c0: c056 afbe 2f40 8040 d72b 8440 69a8 c940
000000d0: 9137 91bf b094 ba40 9aec 1341 8b03 5e40
000000e0: 0c36 a840 b9e7 e6be 2006 5240 607c ce40
000000f0: b0e5 6a40 bfab 9cc0 29ae 9840 31ce eebf
00000100: 58cf 4e40 6f8a 30c0 5eeb 16c0 0245 7b40
00000110: 2256 8540 f0e7 2bc0 174d b240 602f 7440
00000120: fcfd 63c0 aadb c940 9b39 b740 41b2 a2bf
00000130: b863 39be 8666 3c3f 9861 8c40 b000 9040
00000140: 88f8 7540 f003 a5bf 95c1 4cc0 bfa3 44c0
00000150: 12c6 3f40 85c1 6340 adde aabe 3470 a03f
00000160: 5a95 aa40 c036 b7bc c5bf 9740 47eb debf
00000170: 33ac 64bf ea37 c93f c16d 9840 4a5c 8c40
00000180: 82b3 92bf a456 23c0 2a8f 0141 1db5 a940
00000190: 066d b240 4cda 54c0 c2ae 6b40 706b bd3e
000001a0: cbb2 7ebf 6c9f c9bf 2308 8d40 44e2 973f
000001b0: 51f8 8040 44fe 6ac0 ecf3 b5bf 6550 04c0
000001c0: 7d50 a640 fe81 77c0 95ae 35bf c961 9b40
000001d0: e282 3541 a5f4 6940 f851 4341 e11e 2740
000001e0: 770b 9640 de70 5740 192d 0341 508b e6be
000001f0: f5e3 0940 8428 8740 2835 58c0 a01b 5e40
00000200: 4eb0 1dc0 8870 b6bf 72b7 14c0 54ba 37bf
00000210: 94aa 98c0 0ce1 2940 59f9 9940 a563 7a40
00000220: ebfd 58c0 6566 3740 71d9 65c0 32a2 d3be
00000230: d291 9e40 5fbe c5bf dd47 0cbf 0ef0 a540
00000240: f419 b040 ef40 a840 c5b2 8840 6466 cbbf
00000250: c241 afc1 47ce 5940 009b 313b 5cbb 3bc0
00000260: 4638 63c0 f4d0 a5bf 1545 7b40 b356 8dbf
00000270: 2d66 20c0 7657 2f40 bbe8 7d40 96b2 0e41
00000280: 18c6 0cbe 8612 3d40 3831 14c0 b117 efbf
00000290: 52f8 2241 80c6 31bd e89f 9bbd 0a61 5140
000002a0: 780a aa40 d48a d340 f0d1 6cc0 a552 8e40
000002b0: f005 4040 8394 82bf 24a8 ddbe 069b ddbf
000002c0: 7e86 e5bf 0c9c b6bf df63 bcbf c818 79bf
000002d0: 05ef 8141 68c9 aebd b6de 3440 49ea 3140
000002e0: 5533 9a40 75df 1ec0 fa15 4040 4cbc a9bf
000002f0: 9226 6740 1890 2640 ce3e 4dc0 529d 1bc0
00000300: 051f dcc0 edb1 8840 6000 e1bf 5443 79bf
00000310: 0dc6 4cc0 9fd6 5040 b447 4140 bac3 e3c0
00000320: 1d60 9640 d692 1940 cc0f 7040 2418 5140
00000330: d46e b5bf 2fc2 d040 cb9f aa40 8793 1440
00000340: 9383 fb3f aefd 87bf 09bb 9640 00e2 7b3b
00000350: 182f 34c0 4bd6 8240 94ee 5940 095f 8a40
00000360: 2fcd c9c0 0a5d db40 7662 85bf b613 a3c0
00000370: 322a 8540 6bcb 23c0 c22f 8640 bc7c 443f
00000380: 20f7 a63e f683 6c40 bb73 2fbf 8f19 9740
00000390: 2017 a340 08ff abbf 9dea 8c40 0a02 b3c0
000003a0: 7e76 9840 2a35 bac0 94be 8440 0a54 a640
000003b0: a41d 4040 ec47 6d40 8003 d140 f20c 32c0
000003c0: c882 3041 983d 1640 3c6f a040 8191 9f3f
000003d0: 45fa 7b40 dca5 ebbf 3c64 a140 a4a5 67bf
000003e0: f3b6 ac40 0df9 8540 cd54 2ac0 dbbb 9b40
000003f0: f0de 4c41 0479 cebf 90ac ae40 dc08 80bf
-1.4501383 4.0146766 5.0940247 -2.2683346 3.281185 0.14465928 4.5122385 5.6571145
4.9538856 2.2405956 -0.7892731 -1.7933006 -4.3846645 2.4256415 -1.2502701 -3.0393627
2.756152 -6.60614 -2.1660924 3.973978 3.9487832 -1.851507 4.1310387 2.8914871
5.3121505 -5.112442 4.7760353 4.4826207 -1.8916751 2.9682257 2.9158094 3.8947425
4.112469 -1.6988165 15.852081 -2.0984156 -0.21329147 2.4669104 4.4576936 4.4771924
-2.613739 -3.5274944 4.373717 -3.4525352 -0.057401173 4.842246 3.2175655 3.990721
-0.34245872 4.007835 4.1303515 6.301808 -1.1345083 5.8306503 9.245264 3.4689662
5.2565975 -0.45098665 3.2816238 6.4526825 3.670269 -4.895965 4.77126 -1.8656675
3.2314053 -2.7584493 -2.3581157 3.926087 4.1667643 -2.6860313 5.5719104 3.8153915
-3.562377 6.3080645 5.725782 -1.2710649 -0.18104446 0.7359394 4.3869133 4.500084
3.8432941 -1.2891827 -3.1993153 -3.0724943 2.9964643 3.5586865 -0.33373013 1.2534242
5.3307314 -0.022364974 4.7421594 -1.7415551 -0.89325255 1.5720189 4.7633977 4.3862658
-1.1461031 -2.5521631 8.097452 5.3033586 5.5758085 -3.3258238 3.6825414 0.3699603
-0.99491566 -1.5751777 4.4072433 1.1865926 4.030312 -3.6717691 -1.4215064 -2.067407
5.197325 -3.867309 -0.70969516 4.8556867 11.344454 3.655557 12.207512 2.6112597
4.6888995 3.3662639 8.19851 -0.45028162 2.1545384 4.2236958 -3.3782444 3.470436
-2.4638858 -1.4253092 -2.3236966 -0.7176869 -4.7708225 2.6543608 4.811688 3.9123318
-3.390498 2.8656247 -3.5913966 -0.41334683 4.9553003 -1.5448722 -0.54797155 5.1855536
5.503168 5.2579265 4.2718225 -1.5890622 -21.907108 3.4032152 0.0027100444 -2.9333105
-3.5503097 -1.2954392 3.9260914 -1.1042084 -2.5062363 2.7397132 3.9673297 8.9186
-0.13747442 2.9542556 -2.315504 -1.8679105 10.185625 -0.043402195 -0.07598859 3.2715478
5.313778 6.610697 -3.7003136 4.4475884 3.0003624 -1.0201572 -0.43292344 -1.7312934
-1.7931669 -1.4266372 -1.4717978 -0.9730344 16.241709 -0.08534509 2.8260932 2.7799246
4.818766 -2.4823887 3.0013413 -1.3260589 3.6117291 2.6025448 -3.2069583 -2.431477
-6.8787866 4.2717195 -1.757824 -0.9736836 -3.199588 3.2630994 3.0200014 -7.1176424
4.6992326 2.3995872 3.7509642 3.2670984 -1.4174447 6.523704 5.332006 2.3215044
1.9649528 -1.0624292 4.7103314 0.0038434267 -2.8153744 4.088659 3.4051867 4.324101
-6.306297 6.8551073 -1.0420673 -5.096156 4.161401 -2.5592906 4.19333 0.7675283
0.32610416 3.6955543 -0.68535966 4.72187 5.096573 -1.3437204 4.4036393 -5.593999
4.7644644 -5.8189898 4.148264 5.1977587 3.0018091 3.7075148 6.5316772 -2.78204
11.031929 2.3475094 5.0135784 1.2466279 3.9371502 -1.8409991 5.0434856 -0.9048712
5.3973327 4.1866517 -2.6614258 4.8666816 12.804428 -1.6130681 5.4585648 -1.0002704
