mobilenet/depthwise_nxn_7_bias.npy (npy, 2176 bytes, 1 tensors)

array f4 [512]
0	0xc03fdaee	-2.9977374
1	0xbef3728c	-0.4754833
2	0xbf2fffe6	-0.68749845
3	0xbffd1746	-1.9772727
4	0x401d141e	2.4543529
5	0x410492cf	8.285842
6	0x407b4156	3.9258628
7	0x409a3843	4.819368
8	0xc029be32	-2.6522336
9	0x4073d79a	3.8100343
10	0x40a03a51	5.0071187
11	0xbf3c606a	-0.73584616
12	0x40256ea1	2.5848773
13	0xc027b43e	-2.620376
14	0x41484b24	12.518345
15	0x40e456bc	7.1355877
16	0x40b398b2	5.6123896
17	0xbfeef870	-1.8669567
18	0xc05288a6	-3.2895904
19	0xc054ce5c	-3.3250952
20	0x4098b968	4.7726326
21	0xbf5c4dcb	-0.860562
22	0xbf83681f	-1.026615
23	0xc048f796	-3.1401114
24	0x4023e8a3	2.561074
25	0x409ece33	4.962671
26	0x407c5c34	3.9431276
27	0xc07fa020	-3.9941483
28	0x4032e7c7	2.7953966
29	0xc0ba33ed	-5.8188386
30	0x3efbce68	0.49180913
31	0x3fbe52f6	1.4869068
32	0x402fd82a	2.7475686
33	0xc03ea69e	-2.9789195
34	0xc0320ac6	-2.7819076
35	0xbe8c480e	-0.27398723
36	0xc049f6c9	-3.1556876
37	0xc0897ff0	-4.2968674
38	0x40302eca	2.7528558
39	0x400fe116	2.2481132
40	0x403a5bf0	2.9118614
41	0x3e87c102	0.2651444
42	0xc00244e5	-2.035455
43	0xbfec2382	-1.8448336
44	0xc0641b11	-3.564152
45	0xbfd63db5	-1.6737581
46	0x3f464378	0.774467
47	0xc0473cca	-3.1130853
48	0xc090439f	-4.5082545
49	0x3ef0cdac	0.47031915
50	0x410b7aa3	8.717441
51	0xc071222e	-3.7677112
52	0xbf6b43a8	-0.9190011
53	0xc074ac39	-3.8230116
54	0x403d647e	2.9592586
55	0x40aff2c9	5.498387
56	0x406225d6	3.5335593
57	0x40a69be7	5.206531
58	0x3beb0880	0.007172644
59	0x40f4af1e	7.6463766
60	0x3f45a429	0.77203614
61	0xbf09abae	-0.5377759
62	0xbf87c7c6	-1.0607841
63	0x40a13949	5.038243
64	0xbfaf5fe3	-1.3701137
65	0x40924226	4.5705748
66	0xc06a86b8	-3.6644726
67	0xc0686987	-3.6314409
68	0x3f940ea0	1.1566963
69	0xbf04170c	-0.51597667
70	0xc036696e	-2.850185
71	0x40881ae2	4.2532816
72	0x4137094c	11.43977
73	0x4068397a	3.628508
74	0xc0994194	-4.789255
75	0xc034de07	-2.8260515
76	0xbf59a809	-0.85022026
77	0xbfb57587	-1.4176491
78	0xbcda2740	-0.026630044
79	0xbfce6bd5	-1.6126658
80	0x40f9c875	7.80572
81	0xbfd81296	-1.6880672
82	0xbd4c51e0	-0.04988277
83	0xbf99662e	-1.1984308
84	0x40890aaf	4.282554
85	0x40de9362	6.955491
86	0x3f193a28	0.59854364
87	0xbfe67e64	-1.8007321
88	0xbfc6a0f0	-1.5517864
89	0xbf045035	-0.51684886
90	0x40475dff	3.115112
91	0xc00f5372	-2.239468
92	0x40a3e15e	5.1212606
93	0xc0340994	-2.8130846
94	0xbfa568cd	-1.2922608
95	0xc0054290	-2.0821877
96	0x409baf6f	4.865165
97	0x404cdb10	3.2008705
98	0xbf6a0074	-0.9140694
99	0xc00efdb8	-2.2342358
100	0x406dc7e6	3.7153258
101	0x4066767f	3.6009824
102	0xc02efe4e	-2.7342715
103	0x3fcae520	1.5851173
104	0xbf38789d	-0.7205904
105	0xc0159566	-2.3372436
106	0xc04fed07	-3.248842
107	0xbf951629	-1.1647388
108	0x407bb451	3.9328806
109	0x3e801d90	0.25022554
110	0x3f2770b4	0.65406346
111	0x40f204e7	7.5630984
112	0x3e4ae7c2	0.19814971
113	0xc02a2fe8	-2.659174
114	0xbe4062ce	-0.18787691
115	0x4096bf4e	4.7108526
116	0xbfec68da	-1.8469498
117	0x401df6d6	2.4681907
118	0xbcb44c40	-0.022009015
119	0x40b05234	5.5100346
120	0x3f8a34a0	1.079731
121	0x40c78562	6.235032
122	0x401494b2	2.3215756
123	0x409e9b57	4.9564624
124	0xc0b2616e	-5.5743933
125	0xbf0e37c4	-0.5555384
126	0x40a42453	5.129434
127	0xbf9ae3fe	-1.2100828
128	0x403e244a	2.970965
129	0xbf9a2bd2	-1.2044623
130	0x4066fb2a	3.6090798
131	0xbf90884c	-1.1291595
132	0x40acebaa	5.4037676
133	0xc004bd28	-2.0740452
134	0x3ea14d86	0.31504458
135	0x40a69c04	5.206545
136	0xbfc30f66	-1.5239074
137	0x40b38975	5.6105294
138	0x40607cf1	3.5076258
139	0x4026ec73	2.6081817
140	0x3ef5eeec	0.48033845
141	0x40c88c34	6.2671146
142	0x4081697a	4.0441256
143	0xbf462980	-0.77407074
144	0xc056e8d0	-3.3579597
145	0x3ec1ea74	0.37874186
146	0xbd498b40	-0.049205065
147	0xbfc047fa	-1.5021966
148	0x405a8072	3.4140897
149	0xc04a8425	-3.1643155
150	0x404971a0	3.1475601
151	0xc08e80e1	-4.4532323
152	0x3f93c346	1.1543968
153	0xbf91f6ee	-1.1403482
154	0xbfcfe3e9	-1.6241428
155	0x404faa4f	3.2447698
156	0x404778bc	3.116744
157	0xbeb3ed4e	-0.35141987
158	0x4074ea6a	3.8268075
159	0x40bf1adb	5.9720283
160	0x3f60bc64	0.8778746
161	0x402b39b4	2.675397
162	0x408b0e36	4.3454847
163	0x407234c8	3.7844715
164	0xc0976272	-4.7307673
165	0xbef9eda6	-0.48814124
166	0xbf30ef1c	-0.6911485
167	0x409a744e	4.8266973
168	0x40d86c8b	6.76325
169	0xbf810b84	-1.0081639
170	0x4088310e	4.255988
171	0x402e8771	2.7270167
172	0x3f118ec4	0.5685847
173	0x40895491	4.291573
174	0xbfbfb018	-1.4975615
175	0xc02bd516	-2.6848807
176	0xc0d4a8de	-6.6456137
177	0xbffc8ec2	-1.9731066
178	0xbee4cfff	-0.44689938
179	0xbfbc1f94	-1.4697137
180	0x3f3efeb6	0.7460741
181	0xbf85771f	-1.0426978
182	0xc092e180	-4.590027
183	0xc073dcab	-3.8103435
184	0x3fb3a144	1.4033589
185	0xbfeddc05	-1.858277
186	0x4075737c	3.8351736
187	0xbebdaba6	-0.3704502
188	0x40586e5b	3.3817356
189	0xc01758c4	-2.3647928
190	0x3efeaaf8	0.49739814
191	0x3f49a420	0.7876606
192	0xc0afaacb	-5.4895988
193	0xbf94f42e	-1.1637018
194	0xc00132b0	-2.0187187
195	0x40925543	4.572908
196	0xbf8f2bb8	-1.1185217
197	0x40d848bb	6.758878
198	0xc0c1e4dc	-6.059187
199	0xc08a35dc	-4.3190746
200	0x40670e30	3.610241
201	0x40b99fee	5.8007727
202	0xc0649b31	-3.5719721
203	0x409e95cd	4.955786
204	0xbf20f62f	-0.62875646
205	0x403cc051	2.949238
206	0xbf99ae6b	-1.2006353
207	0x40cc3341	6.3812566
208	0x3b227d00	0.0024793744
209	0x40211c51	2.5173533
210	0xc0055f92	-2.0839581
211	0x40395bbc	2.896224
212	0xbfdbcadf	-1.7171286
213	0xc0484614	-3.1292772
214	0xc00266aa	-2.037516
215	0x408595da	4.1745424
216	0xbeb9b171	-0.3626819
217	0xc05c8974	-3.4458895
218	0x4051830c	3.2736235
219	0x40843674	4.131647
220	0xc07e18da	-3.9702668
221	0x4042bea0	3.0428848
222	0x40304d54	2.7547197
223	0xbffb1848	-1.9616785
224	0xbe45dca4	-0.19322449
225	0x4065ad49	3.5887015
226	0xbfa7d967	-1.3113221
227	0x40943352	4.6312647
228	0xc03b58be	-2.9272914
229	0x408f4531	4.477196
230	0x4068f2b3	3.6398132
231	0xbf2f89f0	-0.6856985
232	0x400634aa	2.0969644
233	0x4044348a	3.0657067
234	0x4049d1e3	3.1534355
235	0x3fbf4636	1.4943302
236	0xbf869464	-1.0514035
237	0xbf271631	-0.65268236
238	0x40ffbba4	7.9916553
239	0x3ec68254	0.38771307
240	0xbfc51182	-1.5395968
241	0xbfab4547	-1.3380517
242	0x41000821	8.001985
243	0x3f8957f9	1.0729972
244	0xc0285346	-2.6300826
245	0xbf101402	-0.5628053
246	0x407935ea	3.8939157
247	0xbf8a1fc4	-1.0790944
248	0xc009359a	-2.1438966
249	0xc025317d	-2.5811455
250	0x40806bd8	4.0131645
251	0xbf5d47a8	-0.86437464
252	0x4087f92f	4.249168
253	0x3ec74ffa	0.38928205
254	0x40b16bf9	5.5444303
255	0x40ac4361	5.383225
