mobilenet/depthwise_nxn_12_bias.npy (npy, 4224 bytes, 1 tensors)

array f4 [1024]
000000 f0 d0 0a bd 52 c4 c9 c0 c5 59 de 40 d4 b5 1e c0
       -0.033890665 -6.305215 6.948458 -2.479848
000010 9c f4 3c 40 bc e3 b8 40 18 fe 58 40 d5 25 21 40
       2.9524298 5.7777996 3.3905087 2.517934
000020 c0 6c 52 bc 2c d6 b6 bd 90 3d c2 bc 54 cd 29 40
       -0.012843311 -0.08927569 -0.023710996 2.6531572
000030 a2 38 cf c0 36 af 8b 40 e9 fb 31 40 d8 38 01 bd
       -6.475663 4.365138 2.7810004 -0.03154835
000040 ee b4 c2 c0 b4 26 a1 40 9f ee 68 40 ea cf 3c 40
       -6.084586 5.0359745 3.6395643 2.95019
000050 1e cb 3c 40 f0 62 0a 41 86 af 48 40 16 f3 75 40
       2.9498973 8.649155 3.135713 3.8429618
000060 09 6b 4d 40 a5 d7 67 40 f0 40 68 40 fa d1 3e 40
       3.209658 3.622537 3.6289635 2.981566
000070 2e 73 a0 be a0 7b 31 bf 90 82 c6 bc 91 b8 62 40
       -0.31337875 -0.6932926 -0.024232179 3.542515
000080 8d a3 4e 40 0e eb fb 3f bb 22 8b 40 80 63 61 bc
       3.2287323 1.9681108 4.3479896 -0.013756633
000090 c0 67 6c 40 e0 fa c8 bc 1b 1c 7b 40 48 8f 66 40
       3.6938324 -0.024533689 3.9235904 3.6024952
0000a0 88 7d ea 3f 3e 3e 47 40 e0 82 27 bd 80 67 58 bd
       1.8319559 3.113174 -0.040896297 -0.05283308
0000b0 f5 41 97 40 05 00 4c 40 99 9e 8d bd 30 1a 1f 40
       4.7268014 3.1875012 -0.06915016 2.4859734
0000c0 16 89 35 40 c0 82 2e 40 83 37 79 40 eb 50 1a c0
       2.836492 2.7267303 3.8940132 -2.4111888
0000d0 9c a4 49 bf 4f 67 7e 40 06 05 83 40 f8 fb d0 c0
       -0.787668 3.9750555 4.094363 -6.530758
0000e0 30 af a4 bc c7 20 77 c0 6e 29 31 40 d2 30 5c 40
       -0.020103067 -3.8613756 2.7681537 3.4404798
0000f0 0c e6 84 bd c8 1c 28 bf c6 2b 25 bf d0 8d 9a be
       -0.064891905 -0.65668917 -0.6451992 -0.3018632
000100 23 f1 a5 be 6c da 58 40 62 12 57 40 51 e1 1e c1
       -0.32410535 3.3883314 3.360497 -9.930009
000110 24 be 5e 40 05 4d 9f be 4e e3 42 40 20 76 87 40
       3.4803553 -0.3111345 3.0451236 4.2331696
000120 d0 4d c5 bc 86 55 57 40 94 51 1e c0 28 54 39 40
       -0.024084955 3.364595 -2.4737291 2.8957615
000130 e5 7d a2 40 db bd 85 40 a8 02 3e 40 30 63 29 bc
       5.077868 4.1794257 2.9689121 -0.01033859
000140 19 2a 85 40 a0 cb 90 bc 90 df 50 be 40 b1 62 bc
       4.161389 -0.017675221 -0.20397782 -0.013836205
000150 3c 2d 8f 40 ea 85 41 40 4a 23 94 bd 0a 95 5d 40
       4.474272 3.0237985 -0.07233293 3.4622216
000160 e2 cc 7d 40 04 ac 88 40 e3 e3 39 40 90 dc 8f bc
       3.96563 4.270998 2.904534 -0.017561227
000170 4c 9f fd bd ea 70 24 40 ee 5d aa bf 23 3e 31 c0
       -0.12383899 2.5693917 -1.3309915 -2.7694175
000180 20 f2 3d bd da 19 43 40 b8 f1 d5 bf 74 25 f3 40
       -0.046373487 3.0484529 -1.6714392 7.598322
000190 40 74 ed bb 0a f2 5d 40 91 cb 6b 40 b0 b5 bb bc
       -0.007246524 3.467898 3.6842997 -0.022913784
0001a0 9e 6b 8f 40 45 9a 0f c0 23 bc 34 40 4f fd 86 40
       4.481887 -2.2437909 2.823983 4.2184215
0001b0 60 c0 72 bc a8 e3 3a 40 b5 33 69 40 3e ef 66 40
       -0.014816374 2.920145 3.643781 3.6083522
0001c0 5d 8e e7 40 00 58 a6 bd 3a 36 6f 40 40 40 db bc
       7.2361283 -0.081222534 3.7376847 -0.026764035
0001d0 b0 29 17 bc 80 22 f3 bb 60 3a 26 bf 30 7d 5d 40
       -0.009226248 -0.007419884 -0.64932823 3.4607658
0001e0 a2 3f 75 40 9a 50 e5 be 8e ec 48 bf bd 8e 41 40
       3.8320088 -0.44788057 -0.78485954 3.024337
0001f0 c5 55 88 40 9f fc 84 bf a7 b4 86 40 80 ea 01 be
       4.26047 -1.0389594 4.2095523 -0.12687111
000200 86 22 51 bf c0 28 b7 bc 1c 83 35 40 fa 5b 9f 40
       -0.81693304 -0.022358298 2.8361273 4.9799776
000210 73 12 3e 40 a0 5f 00 bc 9e 2a 86 bf 0c ff 6d c0
       2.969876 -0.007835299 -1.0481756 -3.7186918
000220 a0 9c 8b bc fe 8b 93 40 7a 49 40 bf cb 91 4d 40
       -0.017042458 4.610839 -0.75112116 3.2120235
000230 b8 76 85 40 ac ee 66 40 32 2c 8b 40 16 04 7a 40
       4.170742 3.6083174 4.349145 3.9064994
000240 a8 4f e5 be 00 2b 3f 40 c0 b4 f1 bb 87 26 ab 40
       -0.44787335 2.9869995 -0.0073762834 5.348453
000250 60 9b cb bf b2 3f f1 3e 24 2c 83 bf 32 80 98 40
       -1.5906792 0.47118908 -1.0247846 4.765649
000260 7a ac 57 40 0e 8e 41 be af 2b 39 40 9f 77 14 c1
       3.3699021 -0.18901846 2.8932912 -9.279204
000270 66 8b 82 40 27 21 37 40 31 f9 8d 40 24 c0 61 40
       4.0795164 2.8613985 4.436669 3.5273523
000280 78 5a 89 40 20 e6 82 bc 9f 76 77 40 45 61 75 40
       4.2922935 -0.015978873 3.866615 3.8340619
000290 c0 04 a4 bc a2 b9 6a 40 85 11 79 40 39 04 34 40
       -0.020021796 3.6675801 3.8916943 2.8127577
0002a0 49 89 37 40 41 ea 47 40 29 91 34 40 6a 6b 72 be
       2.8677542 3.1236727 2.8213599 -0.23673788
0002b0 4b 86 8c 40 88 d6 a4 40 40 fa 4c bc 99 1b 1a 40
       4.391393 5.151188 -0.012510836 2.4079344
0002c0 52 ff 7b 40 20 96 f1 bc 6f ff f8 be d1 01 f7 40
       3.9374585 -0.02949053 -0.4863238 7.7189717
0002d0 98 7e 11 40 e0 28 bc bf c0 94 30 bd 95 8e 90 40
       2.2733517 -1.4699974 -0.04311061 4.517405
0002e0 90 a2 13 bd 9b ee 87 40 e2 2d 99 be eb 4e bb bf
       -0.036043704 4.2478766 -0.29917818 -1.4633459
0002f0 12 e9 42 bf 54 19 85 bd 00 80 4c bd f7 27 9b c0
       -0.7613689 -0.064989716 -0.049926758 -4.8486285
000300 8d 1c 3d 40 9e 22 f9 bf 70 20 7a 40 50 33 c9 bc
       2.9548676 -1.9463689 3.9082298 -0.0245606
000310 50 d1 7f 40 ba cf 5d 40 20 cb 35 bc 75 59 46 40
       3.9971504 3.4658036 -0.011095792 3.09921
000320 20 d8 a2 bf cc e9 c9 40 ac 36 8b c0 7f 64 a4 40
       -1.2722206 6.3097897 -4.350424 5.1372676
000330 4c cb 68 40 59 a5 39 40 73 02 51 40 20 82 70 bc
       3.6374083 2.900717 3.2657745 -0.014679462
000340 b1 b3 78 40 40 b2 b2 bc c0 49 ed bc 06 d7 43 40
       3.8859675 -0.021813512 -0.02896583 3.059999
000350 16 ca 89 40 83 d6 a1 bf 78 c3 7f 40 60 62 41 40
       4.3059187 -1.2643589 3.9963055 3.0216293
000360 30 d1 82 bc 88 5f 59 bf 44 f8 7b c0 37 34 88 40
       -0.015968889 -0.84911394 -3.937028 4.256374
000370 16 90 91 40 a8 8d 67 40 da 21 74 40 ba ce 25 c0
       4.5488386 3.618021 3.8145661 -2.5907426
000380 e2 db 4a 40 6b 0f 3a 40 10 68 24 bc 64 c2 9b bd
       3.1696706 2.907191 -0.010034576 -0.076054364
000390 00 4a 79 bc 4d 55 c5 40 4f 15 17 3f ee 4d 77 40
       -0.015215397 6.1666627 0.5901689 3.8641315
0003a0 a0 b5 09 40 4c c8 8b 40 ee 47 32 40 d0 4a c3 40
       2.1517105 4.3682003 2.7856402 6.1028824
0003b0 a6 b9 52 40 e4 9e d3 bd 89 2f aa bf 00 0e e9 3a
       3.292581 -0.1033304 -1.3295757 0.0017780662
0003c0 f5 39 e2 be 0f c2 32 bf 23 48 87 40 08 9b fd 40
       -0.44184843 -0.6982736 4.2275558 7.9251747
0003d0 1e 39 3e 40 97 93 35 bf b4 f8 24 bd 0d 31 95 40
       2.9722362 -0.7092833 -0.040276244 4.6622376
0003e0 20 21 14 c1 2f ed 35 3f 08 10 81 40 c6 cd 90 40
       -9.258087 0.7106504 4.033207 4.525119
0003f0 f8 9f 84 40 fc 96 78 40 5b d2 37 40 47 99 59 40
       4.1445274 3.8842154 2.872214 3.3999803
