mobilenet/depthwise_nxn_4_bias.npy (npy, 1152 bytes, 1 tensors)

array f4 [256]
0	0x3f4f9802	0.8109132
1	0x407a91f9	3.9151595
2	0x3f6290a0	0.8850193
3	0x40215357	2.5207117
4	0x4091a24f	4.551063
5	0x40535c7a	3.3025193
6	0x3fca3c5c	1.579967
7	0x401a3eee	2.410091
8	0xbfdc17cf	-1.7194766
9	0xc0bba6db	-5.864118
10	0xbe457240	-0.19281864
11	0xbf4b3248	-0.793736
12	0xbf055dac	-0.52096057
13	0x408ed8ec	4.4639797
14	0x403afd88	2.9217243
15	0x403ad78b	2.9194057
16	0xbe2a7778	-0.16647136
17	0x3c361400	0.011113167
18	0x400469b2	2.0689511
19	0x3fa41096	1.2817562
20	0xbfd9e836	-1.702399
21	0x4128567b	10.521113
22	0x40da7c90	6.8277054
23	0x3ebea210	0.3723302
24	0x40490036	3.1406379
25	0xc00fb361	-2.2453234
26	0xbfaa06cb	-1.3283323
27	0x3faf8f97	1.3715695
28	0x400ea202	2.2286382
29	0x403551c5	2.8331158
30	0x40ad33de	5.4125814
31	0xbe68e504	-0.22743613
32	0x400fc536	2.2464118
33	0x3c6d6680	0.01448977
34	0x3f79593a	0.97401774
35	0x4019d58f	2.4036596
36	0xbdbd2890	-0.09236252
37	0x3e725d08	0.23668301
38	0x408b8c23	4.3608565
39	0x40fb66c2	7.8562937
40	0x41009b84	8.037968
41	0xbeb2b05a	-0.3490017
42	0x4041e946	3.0298629
43	0x3c0bfa80	0.008543611
44	0x3f6be885	0.9215167
45	0x3fa2fe03	1.2733768
46	0x3ea45c1d	0.32101527
47	0x41658893	14.345843
48	0x3d0f7c20	0.035030484
49	0xbc010220	-0.007874042
50	0x3ea79b11	0.32735494
51	0x40fa32a8	7.8186836
52	0x4038cd09	2.8875144
53	0xc09a776c	-4.827078
54	0x408af55d	4.3424516
55	0x4073534e	3.8019595
56	0xbee0b0da	-0.43884927
57	0xbe665140	-0.22491932
58	0xbfeb6274	-1.838942
59	0xbf60b521	-0.8777638
60	0xbf8ab0e9	-1.0835239
61	0xbed247a4	-0.41070282
62	0x3e929864	0.2863189
63	0x3eb5036d	0.35354176
64	0x40a38a7c	5.110655
65	0x4026c699	2.6058714
66	0x3fecd6bb	1.850303
67	0x40926eb9	4.576016
68	0xbbadfe00	-0.00530982
69	0x3c501800	0.012701035
70	0xbdcb5c40	-0.09929705
71	0xbcf0e340	-0.029405236
72	0xbf866625	-1.0499922
73	0x4054e4f0	3.3264732
74	0xc020e8e0	-2.5142136
75	0x3fdd99c9	1.7312557
76	0x4050ac90	3.2605324
77	0xc1029694	-8.161762
78	0x410ac59c	8.673244
79	0x40a69b4e	5.206458
80	0xbfbdf791	-1.4841176
81	0x3e3762a0	0.17908716
82	0xbf2f5cd7	-0.6850104
83	0x4109d354	8.614094
84	0x3eb69fda	0.35668832
85	0xbfb94958	-1.4475508
86	0xbec88134	-0.39161074
87	0xbf4233a4	-0.7586005
88	0x4148e01b	12.554713
89	0x410030b4	8.01189
90	0x4062c124	3.5430384
91	0xbfc4f04d	-1.5385834
92	0xbf915805	-1.1354986
93	0x3f4991f3	0.78738326
94	0xc0885691	-4.260567
95	0xbfc3d5cc	-1.5299621
96	0x40b6dfa4	5.7148
97	0xbc9b6080	-0.018966913
98	0x4086c662	4.2117167
99	0xbea60650	-0.3242669
100	0x3fa95fe0	1.3232384
101	0x402fddba	2.747908
102	0x3b8b15c0	0.004244536
103	0x409e5f41	4.9491277
104	0x410a91b2	8.66057
105	0xbfb844ec	-1.4396033
106	0x3e06fad0	0.13181615
107	0x407a6d46	3.9129195
108	0xc0872a17	-4.223888
109	0x403f095d	2.9849465
110	0x3fe444c5	1.7833487
111	0x3b4c0200	0.0031129122
112	0xbf6fe44e	-0.9370774
113	0x40470b1c	3.110053
114	0x40682d60	3.6277695
115	0x4021dc02	2.5290532
116	0x411b24d4	9.696491
117	0xbe520274	-0.20508748
118	0x40859b42	4.1752024
119	0xbde46000	-0.11151123
120	0x3fe4971e	1.7858617
121	0x3fe84d15	1.8148524
122	0x40b1c3a6	5.555133
123	0xc0044883	-2.0669258
124	0xbe3528f8	-0.1769141
125	0xc02e567a	-2.724028
126	0x4048d446	3.1379561
127	0xbf93e0a2	-1.1552927
128	0xbcd9fec0	-0.026610732
129	0xc0f86254	-7.762003
130	0x408d697c	4.4191265
131	0x40ff62c7	7.980808
132	0x409340fb	4.601682
133	0x405946d2	3.3949475
134	0xc041092e	-3.0161853
135	0xbf09fe5a	-0.53903735
136	0x404935fc	3.14392
137	0x40169267	2.3526857
138	0xbee5145c	-0.44742095
139	0x3c447400	0.011990547
140	0xc04a4c90	-3.160923
141	0xbf79773b	-0.97447556
142	0xc0acb612	-5.3972254
143	0x40ed4957	7.4152026
144	0x3c935800	0.017986298
145	0x3cdaf640	0.02672875
146	0x40d25232	6.5725336
147	0xbf45f812	-0.7733165
148	0xbfab636c	-1.3389716
149	0x40f6b7d7	7.7099414
150	0xbe78fe14	-0.24315673
151	0x400ecf38	2.2313976
152	0x4050078e	3.250461
153	0x3fab2ce5	1.3373076
154	0x3e053c34	0.13011247
155	0x3ee81449	0.45327976
156	0x408184ca	4.0474596
157	0x3f6ba2fe	0.9204558
158	0xbf85da54	-1.0457253
159	0x409ea96c	4.9581814
160	0x3d75c740	0.060004473
161	0xbedee360	-0.43532848
162	0x3dec9990	0.11552727
163	0xc03a5913	-2.9116867
164	0x4129c99c	10.611721
165	0xbf94cf38	-1.1625738
166	0x40ab20b3	5.3477416
167	0x3fab91f0	1.3403912
168	0x3f105f76	0.5639566
169	0xbf5fe04b	-0.8745162
170	0x40307af2	2.757504
171	0xbfafc326	-1.373143
172	0xbfdbf442	-1.7183917
173	0xbe8f7730	-0.2802062
174	0xbffc7025	-1.9721724
175	0xbf9757df	-1.1823691
176	0xbe802fb8	-0.25036407
177	0x402d3b84	2.7067575
178	0xc0796ced	-3.8972733
179	0xc0128a8a	-2.2897058
180	0x3c8d03c0	0.017213702
181	0x407c5835	3.9428837
182	0x40a5b035	5.1777596
183	0x404d51db	3.208121
184	0x4190d2af	18.102873
185	0xc0af9548	-5.486973
186	0xbe974fb0	-0.29552984
187	0xbf593429	-0.84845215
188	0x3f17180c	0.5902107
189	0x40a3f271	5.123345
190	0xbc865240	-0.016396642
191	0x40e65455	7.1977944
192	0xc00ec9fe	-2.2310786
193	0x3ffcca02	1.9749148
194	0x3eb341d8	0.35011172
195	0x40b2d3e7	5.588367
196	0x40a1dc38	5.058132
197	0xbfabd17e	-1.3423307
198	0x3fb5fe10	1.4218159
199	0xc06d5176	-3.708097
200	0x3e2d22a8	0.16907752
201	0x3f1bf39a	0.6091858
202	0x41519a58	13.100182
203	0x40a2c963	5.0870833
204	0x40906a96	4.513011
205	0xbe03c399	-0.12867583
206	0x41059010	8.3476715
207	0xbf1fd8da	-0.62440264
208	0xbeffb0ca	-0.49939567
209	0xc015b517	-2.3391778
210	0xbeabec1f	-0.33578584
211	0x40ceb4ae	6.4595556
212	0xbc9ab780	-0.018886328
213	0xbf899e4e	-1.0751436
214	0x3f668dca	0.900601
215	0x3ffa242e	1.9542291
216	0xbfc17e25	-1.5116621
217	0xbb80db80	-0.0039324164
218	0xbf56f11a	-0.8396164
219	0xc12d94d4	-10.848835
220	0xc0dc8eaa	-6.892415
221	0xbfc9cb5d	-1.5765187
222	0x3f56e5f8	0.83944654
223	0x405fcb81	3.496796
224	0x40b1ca88	5.555973
225	0x3fb4ac41	1.4115068
226	0x3fb76ddc	1.4330401
227	0xbf9b2041	-1.2119218
228	0x3fc8b856	1.5681255
229	0x4034c02e	2.8242297
230	0x40e1d836	7.057643
231	0x40528142	3.2891393
232	0x3bb53f00	0.005531192
233	0xbed9065c	-0.42387664
234	0x4030a48c	2.7600431
235	0x401ca2a9	2.447428
236	0x4040e98a	3.014254
237	0x4067fb76	3.624723
238	0x3fe5fd5c	1.7967944
239	0xbc7dce00	-0.015491009
240	0x3eb25134	0.34827578
241	0xc03aad96	-2.9168448
242	0xbf85fd7a	-1.046798
243	0xbd255d80	-0.04037237
244	0x409043c6	4.508273
245	0x405b0722	3.4223104
246	0x4080ee78	4.02911
247	0xbf9ef703	-1.2419132
248	0xbcaf6080	-0.02140832
249	0x408e49fa	4.4465303
250	0x403a2ae8	2.9088688
251	0x40398f60	2.899376
252	0xbc152680	-0.009103417
253	0xbc4bd000	-0.012439728
254	0xc09c449e	-4.883376
255	0x41174080	9.453247
