mobilenet/depthwise_nxn_8_bias.npy (npy, 2176 bytes, 1 tensors)

array f4 [512]
2.608521 -5.67595 -0.44583195 3.72725 4.757601 2.652016 0.5309118 -1.2345197
9.030928 4.012101 -0.030225217 2.9863253 9.865992 -1.5344367 8.31317 3.82791
5.6423645 -2.7118475 4.0361824 -3.6774254 -0.2558642 -2.219751 3.7366147 2.342183
-4.245738 -4.961581 5.13461 3.262054 3.9906476 9.033421 2.3792815 3.8036506
-0.16777022 -3.1936998 -0.8810298 -4.8618827 -1.8443348 -1.165889 2.638743 -0.737053
3.7301457 0.071732044 -0.066459775 3.5497887 3.8504016 0.3272887 3.5007787 4.5617948
4.1228447 6.59993 1.5690436 -1.3049397 1.8271754 3.3127213 0.826328 2.406668
3.1784077 4.983293 9.051926 4.2398896 -0.2756998 0.5825093 -1.6210192 -0.0018466115
3.1584747 3.870935 2.1564968 -0.6505843 -1.6327488 2.3761902 3.0561535 2.6658406
-0.17015159 -1.4323518 4.3570666 3.5838053 -4.465871 -0.4434271 4.4117436 -1.7081932
4.6406455 -0.33622456 7.31206 1.1731849 -0.09301776 5.4357786 -1.7368577 4.079515
0.902473 -0.7108581 4.5680485 -2.1080472 -4.6042156 3.1691606 0.20316601 -2.1195514
-1.3523571 4.4883056 -1.354718 -0.4903792 3.585157 -1.8892133 -1.4215746 -3.2919111
-0.081202626 0.48564482 3.0761914 3.4754722 -0.96205336 5.095245 -0.1994943 4.3207603
2.3659742 -1.65729 -1.2541517 0.3191793 4.387761 2.850891 -1.8362837 -0.72207093
-0.69731843 2.876986 -1.8859279 3.5938973 -1.2596865 2.56295 2.5786982 -0.93030393
3.572227 4.437425 0.10926254 3.536644 -4.3917403 1.9682363 3.3238814 2.5418746
-0.19659734 2.5225265 3.8038445 -0.05185139 3.906293 3.9759333 -0.3988781 -4.869175
-0.9207622 2.5465708 -3.1799378 3.2657547 0.9493959 -0.6033561 -1.5328245 -1.2898393
-0.4817481 -1.5873648 -0.10558683 -1.5539118 3.3607135 4.3454943 0.33307576 -1.2536085
7.010504 5.034245 -3.8391182 -1.1438164 -0.93374836 3.9784598 5.9562793 2.6913793
2.934761 2.160953 -5.382586 -2.6976745 3.3625398 2.3505456 3.5477207 4.1043816
-3.4264936 3.436465 -0.839834 -1.9830687 -2.196395 -1.1593359 2.5914874 0.5256665
4.9873776 -1.6501915 -1.3539764 -1.5089608 1.7186947 5.5491047 0.0005213022 -0.49882177
2.9237552 -0.7040543 4.570452 6.631159 1.1488676 -1.4743971 2.9762259 3.3700933
3.2830758 3.3856144 0.6519911 1.2199224 2.2683988 5.8641005 -3.122682 -0.8085735
6.7760863 1.5120771 2.0310388 -6.981433 7.727055 3.0623434 -0.18948671 -1.3796904
9.900588 3.8196106 3.493766 -1.1526235 -3.660087 3.2963688 4.8970284 3.1397805
4.3529634 -1.5931721 -0.5136726 -2.1044226 -0.005419135 -1.9944426 3.7819855 3.2926672
7.2908754 8.3825445 -0.9144965 -4.2038736 4.683169 1.728389 -1.596855 -2.0477533
3.770933 -1.3637916 -3.2643118 -0.6598792 4.067719 4.397596 4.915578 6.9058433
-2.963411 -0.65645754 5.0234084 2.8940709 6.2840977 0.3158669 -3.1239605 2.5657153
00000000: 02f2 2640 62a1 b5c0 1644 e4be 448b 6e40
00000010: 443e 9840 a1ba 2940 d6e9 073f be04 9ebf
00000020: ae7e 1041 2263 8040 e09a f7bc f41f 3f40
00000030: 1adb 1d41 6c68 c4bf bf02 0541 7afc 7440
00000040: 408e b440 e98e 2dc0 6828 8140 f05a 6bc0
00000050: a200 83be 6610 0ec0 b224 6f40 54e6 1540
00000060: 16dd 87c0 46c5 9ec0 ba4e a440 7ec5 5040
00000070: c566 7f40 e488 1041 2646 1840 036f 7340
00000080: f5cb 2bbe 9465 4cc0 2b8b 61bf 8b94 9bc0
00000090: 2a13 ecbf da3b 95bf 2ae1 2840 81af 3cbf
000000a0: b5ba 6e40 40e8 923d 101c 88bd bd2f 6340
000000b0: fb6c 7640 6292 a73e c20c 6040 39fa 9140
000000c0: 58ee 8340 a032 d340 6cd6 c83f 4408 a7bf
000000d0: e2e0 e93f a003 5440 3b8a 533f d906 1a40
000000e0: 086b 4b40 2377 9f40 b0d4 1041 2dad 8740
000000f0: 8628 8dbe 541f 153f 8f7d cfbf 000a f2ba
00000100: 7324 4a40 66bd 7740 0b04 0a40 b18c 26bf
00000110: eafd d0bf 8013 1840 0598 4340 229d 2a40
00000120: 383c 2ebe 4e57 b7bf 176d 8b40 115d 6540
00000130: 6ae8 8ec0 e008 e3be 012d 8d40 13a6 dabf
00000140: 2b80 9440 a025 acbe 65fc e940 ec2a 963f
00000150: 1880 bebd e6f1 ad40 5a51 debf 638b 8240
00000160: 7808 673f ccfa 35bf 742d 9240 3fea 06c0
00000170: bc55 93c0 87d3 4a40 c00a 503e bba6 07c0
00000180: 0a1a adbf 33a0 8f40 6667 adbf fc12 fbbe
00000190: 3673 6540 bed1 f1bf 28f6 b5bf acae 52c0
000001a0: 904d a6bd 70a6 f83e 52e0 4440 236e 5e40
000001b0: 2149 76bf 3f0c a340 3c48 4cbe ab43 8a40
000001c0: 1f6c 1740 1422 d4bf 0b88 a0bf 786b a33e
000001d0: 8a68 8c40 0075 3640 580b ebbf a4d9 38bf
000001e0: 7683 32bf 8a20 3840 1666 f1bf 6a02 6640
000001f0: 683d a1bf 5f07 2440 6409 2540 6628 6ebf
00000200: 5e9f 6440 63ff 8d40 0ac5 df3d 6058 6240
00000210: 2389 8cc0 2bef fb3f 79ba 5440 13ae 2240
00000220: d050 49be 1371 2140 3072 7340 2062 54bd
00000230: b400 7a40 b175 7e40 c039 ccbe 48d0 9bc0
00000240: 12b7 6bbf 04fb 2240 1a84 4bc0 2002 5140
00000250: 9c0b 733f 8c75 1abf 9833 c4bf 7419 a5bf
00000260: b0a7 f6be c52e cbbf e83d d8bd 95e6 c6bf
00000270: ee15 5740 4a0e 8b40 e888 aa3e 3e76 a0bf
00000280: 0c56 e040 8918 a140 1db4 75c0 9368 92bf
00000290: 220a 6fbf 169f 7e40 d799 be40 8f3f 2c40
000002a0: 20d3 3b40 0e4d 0a40 253e acc0 b3a6 2cc0
000002b0: da33 5740 576f 1640 db0d 6340 1857 8340
000002c0: ac4b 5bc0 0bef 5b40 5cff 56bf 32d5 fdbf
000002d0: bc91 0cc0 1e65 94bf eeda 2540 1492 063f
000002e0: 9998 9f40 7a39 d3bf 194f adbf a125 c1bf
000002f0: 30fe db3f 4492 b140 00a8 083a 9165 ffbe
00000300: ce1e 3b40 e73c 34bf 2541 9240 7432 d440
00000310: 180e 933f 0bb9 bcbf 7c7a 3e40 9caf 5740
00000320: ea1d 5240 e8ad 5840 e4e8 263f 6b26 9c3f
00000330: 722d 1140 b6a6 bb40 06da 47c0 acfe 4ebf
00000340: b3d5 d840 be8b c13f 8afc 0140 e667 dfc0
00000350: 0944 f740 6ffd 4340 ce08 42be b299 b0bf
00000360: cf68 1e41 8074 7440 dd99 5f40 2b89 93bf
00000370: de3e 6ac0 b5f7 5240 75b4 9c40 2af2 4840
00000380: 7a4b 8b40 10ed cbbf 0c80 03bf dcae 06c0
00000390: 0093 b1bb e549 ffbf 0d0c 7240 0fbb 5240
000003a0: da4e e940 e71e 0641 711c 6abf 2286 86c0
000003b0: 85dc 9540 da3b dd3f bf65 ccbf 640e 03c0
000003c0: f756 7140 b990 aebf 7cea 50c0 d8ed 28bf
000003d0: c12a 8240 1bb9 8c40 6a4c 9d40 abfc dc40
000003e0: 87a8 3dc0 9a0d 28bf c3bf a040 7538 3940
000003f0: 5417 c940 4eb9 a13e f8ee 47c0 ae34 2440
