mobilenet/depthwise_nxn_9_bias.npy (npy, 2176 bytes, 1 tensors)

array f4 [512]
0	0x4045b153	3.088948
1	0x3ecc71f8	0.399307
2	0xbf5a91d6	-0.8537878
3	0x4074969b	3.8216922
4	0x40929125	4.580218
5	0xbf78612e	-0.97023284
6	0xc079b8e6	-3.9019103
7	0x401a4966	2.41073
8	0xbf5bc4fe	-0.8584746
9	0x40085f89	2.130831
10	0x404afee4	3.1718073
11	0xbfccddd6	-1.6005199
12	0x40138cd1	2.3054698
13	0x404a4c1e	3.1608958
14	0x3f5228bf	0.82093424
15	0xbfde156b	-1.7350286
16	0x40105fef	2.2558553
17	0x40279fcf	2.619129
18	0xbf994d24	-1.1976666
19	0xbff43cca	-1.9081051
20	0x400f431b	2.2384708
21	0x402a62a9	2.6622717
22	0x401625b2	2.3460507
23	0xc009a6be	-2.1508021
24	0xbe93d078	-0.28869987
25	0xbeffeb10	-0.49984026
26	0xbeb4a49a	-0.3528183
27	0x40883d28	4.2574654
28	0x403a7354	2.913289
29	0x400e94be	2.2278285
30	0x40bd7a50	5.9211807
31	0xbe82ac48	-0.25522065
32	0x400d74a1	2.2102435
33	0xbba62240	-0.005070001
34	0x402121d0	2.5176888
35	0xbf6357a8	-0.8880563
36	0xbc9a5ba0	-0.018842518
37	0x403b98bf	2.931198
38	0x400f5fba	2.2402177
39	0xbf28125e	-0.65653026
40	0x4014a240	2.322403
41	0xc06c88ec	-3.695857
42	0x40869edc	4.206892
43	0xbf8ce680	-1.1007843
44	0x3f9f9cff	1.2469786
45	0x40046243	2.0684974
46	0x3fe2c4e8	1.7716341
47	0x4012a452	2.2912793
48	0x404ba3dc	3.1818762
49	0x3f87bd6a	1.060468
50	0x406bab0b	3.6823146
51	0xbf555a99	-0.83341366
52	0x406ea1ae	3.7286181
53	0xbfae2e06	-1.3607795
54	0x3edb43f4	0.42825282
55	0x40987259	4.7639585
56	0x40411b2a	3.017283
57	0xbe7647de	-0.24050853
58	0xbfa925fc	-1.3214717
59	0x40791dbd	3.89244
60	0xbf7c81fd	-0.98635846
61	0x407a3d8c	3.9100065
62	0xc0132050	-2.2988472
63	0x4001d27b	2.0284717
64	0xbe9f94f6	-0.31168336
65	0xc052a1ab	-3.2911174
66	0x3f834a34	1.025702
67	0x40357dd5	2.8358052
68	0xbed121a9	-0.40845993
69	0x400e4525	2.2229702
70	0x40558195	3.336034
71	0x40a65607	5.1980014
72	0x4046a219	3.1036437
73	0xc06f7670	-3.7416039
74	0x40a8d696	5.2761946
75	0x404a3cf7	3.159971
76	0xbf6be12e	-0.9214047
77	0x4043153c	3.048171
78	0x40958630	4.6726303
79	0x408e57d1	4.44822
80	0xbf4e7246	-0.8064312
81	0x40733b1c	3.8004827
82	0x408f6320	4.48085
83	0x40178e84	2.3680735
84	0xbfa4863d	-1.2853466
85	0xbf142c17	-0.57879776
86	0xc0101c3f	-2.251724
87	0x40938bcf	4.6108165
88	0xc0200d3e	-2.5008082
89	0x40318513	2.7737472
90	0x403e21ed	2.9708207
91	0x40a8577f	5.2606807
92	0xbf35923c	-0.7092626
93	0xbc82db00	-0.015973568
94	0x404dc57c	3.2151785
95	0x405ec950	3.4810371
96	0xbf50901d	-0.814699
97	0x409c8200	4.890869
98	0xbf509121	-0.8147145
99	0x402110b4	2.5166445
100	0x4040b9ea	3.0113473
101	0x3e95a914	0.2923056
102	0xbfec06a8	-1.8439531
103	0xc08167e0	-4.04393
104	0x408c11fe	4.3771963
105	0x40d35fd7	6.605449
106	0x4014ff51	2.3280833
107	0xbd16b1d8	-0.0367907
108	0xbe84fa91	-0.25972417
109	0x40b33ba8	5.6010323
110	0x400b679e	2.1781993
111	0xbf80c9c8	-1.0061579
112	0x40b071b7	5.513881
113	0x405598ab	3.337443
114	0xc02d180c	-2.7045927
115	0xbfe1f034	-1.7651429
116	0x408df1f9	4.4357877
117	0x40918156	4.547038
118	0x405dd7f0	3.4663048
119	0x3ff200a4	1.8906446
120	0x408da1c8	4.4259987
121	0x403b63da	2.9279695
122	0xbfbc8fe1	-1.4731408
123	0x402affe2	2.6718678
124	0x3fcd9dae	1.6063745
125	0x404dada1	3.2137225
126	0x407b8075	3.9297154
127	0xbb199c80	-0.0023439229
128	0x4026c4ef	2.6057699
129	0xbf809fbe	-1.004875
130	0xc0a0b93e	-5.0226126
131	0x40511bd0	3.2673225
132	0x3ff8944b	1.9420255
133	0x402b1d70	2.6736717
134	0xc04a86b0	-3.1644707
135	0x40801eb8	4.00375
136	0xc0ac08a7	-5.376056
137	0x404b64b0	3.1780205
138	0xbf4e738d	-0.80645066
139	0x4037b1e8	2.8702335
140	0x4049af6c	3.151332
141	0x404762f8	3.1154156
142	0x3c64e400	0.013970375
143	0x401c0b58	2.4381924
144	0xc021d028	-2.5283298
145	0x3fdf5ad4	1.7449594
146	0xbfece56a	-1.8507512
147	0x40dcec20	6.903824
148	0x402b5b13	2.6774337
149	0xbbc70b80	-0.006074369
150	0x400b51bd	2.176864
151	0x406032b7	3.5030954
152	0x4027f0b8	2.6240673
153	0x3f9ac5d9	1.2091628
154	0x4024e2fe	2.5763545
155	0x407dd691	3.966221
156	0xbf280845	-0.6563762
157	0x3fa79461	1.3092157
158	0x400d4e34	2.2078981
159	0x40100766	2.2504516
160	0x40ca6274	6.324518
161	0x402b14c6	2.673143
162	0xc03be405	-2.9357922
163	0x40b52fa0	5.6620636
164	0x4016255c	2.3460302
165	0xbfb68f74	-1.4262528
166	0x3f689ee8	0.9086747
167	0xc090541d	-4.5102677
168	0x40a3b0ae	5.1153173
169	0x3e6cf742	0.23141196
170	0xc04e4d18	-3.2234554
171	0xbfb021ec	-1.3760352
172	0x404f1ef2	3.2362638
173	0xbf4728d5	-0.7779668
174	0xc03e4b6c	-2.9733534
175	0x40837f39	4.10928
176	0x409cacee	4.8961096
177	0x40219290	2.5245705
178	0x3f8558a7	1.041768
179	0x402269ce	2.5377078
180	0x405a24d2	3.4084973
181	0x404d99fe	3.212524
182	0xc0557d38	-3.3357677
183	0xbff9a218	-1.9502592
184	0xc09b6603	-4.8562026
185	0xc0afbe58	-5.4919853
186	0x40888db6	4.2672987
187	0xbf99f326	-1.2027328
188	0xc0d57195	-6.670115
189	0xbf85c21e	-1.0449865
190	0x40240f36	2.5634284
191	0x407989b4	3.8990297
192	0x3c20f9d8	0.009825192
193	0x3fae292e	1.3606317
194	0xbfa2228e	-1.2666795
195	0x404e9a5c	3.2281713
196	0xc02b2406	-2.6740737
197	0xc083a7ea	-4.1142473
198	0xc086368b	-4.194158
199	0x400dd7af	2.2162893
200	0xbfa79574	-1.3092484
201	0x40515615	3.270879
202	0xbffd32a3	-1.9781078
203	0x40d24cf8	6.5718956
204	0x40661550	3.5950508
205	0x4033fb77	2.8122232
206	0x40152e47	2.3309495
207	0xc09df2eb	-4.935903
208	0x40251e1f	2.5799634
209	0x3f55e852	0.8355762
210	0xbfefb94f	-1.8728427
211	0x403533b0	2.8312798
212	0x4091b805	4.5537133
213	0x401e56ce	2.4740481
214	0x408dd9a6	4.4328184
215	0x4046f9f8	3.109007
216	0xc0086f23	-2.1317832
217	0xbfcd431e	-1.6036108
218	0x401e3fd6	2.4726462
219	0x405f493e	3.4888453
220	0x40106b7a	2.2565598
221	0xbff9afe7	-1.9506806
222	0x402ce653	2.7015579
223	0x40a0ce70	5.0252
224	0xbf012541	-0.5044747
225	0x407bba74	3.9332552
226	0x3e3a0bde	0.1816859
227	0x3f9029a6	1.126271
228	0x4026e28c	2.6075773
229	0x3ea18c5a	0.31552392
230	0x4029cb06	2.6530166
231	0x40a2f5e3	5.0925155
232	0xbee6da5c	-0.4508847
233	0x402ce5b7	2.7015207
234	0xbe5ccb1e	-0.21561858
235	0x405c45f4	3.4417696
236	0xbf3787ff	-0.7169189
237	0x402beaf8	2.6862164
238	0x40801459	4.002484
239	0xbf7f3cd4	-0.9970219
240	0x406d31c6	3.706163
241	0xbf8c458d	-1.0958725
242	0x4082c4d7	4.0865283
243	0x402d729a	2.7101197
244	0x401c6a2b	2.44398
245	0x4087d502	4.244752
246	0x3f800846	1.0002525
247	0xbfe8bdc7	-1.8182915
248	0xbfea83e2	-1.8321497
249	0x3ff31072	1.8989394
250	0xc026f15b	-2.6084812
251	0x406d6108	3.7090473
252	0xbfb06cee	-1.3783243
253	0x401f152a	2.4856668
254	0x3f8183e2	1.0118372
255	0x4047ecb4	3.1238222
