mobilenet/depthwise_nxn_2_bias.npy (npy, 640 bytes, 1 tensors)

array f4 [128]
2.617837 4.470974 13.837688 3.1025522 0.41570443 6.7541075 2.288818 0.19161259
-2.3022723 2.5362105 1.8802019 10.674231 0.39337757 4.887685 1.181367 -4.0151176
1.3990791 1.0740736 9.191262 -1.2126069 -6.952395 -0.14932215 1.8975551 1.5531247
4.1193805 10.990143 2.045754 3.6031513 1.7658689 6.5868764 2.1669755 -1.1583245
0.6572827 -0.19690332 -0.987231 2.9607527 0.12303883 -0.07019743 4.0740294 17.89321
-0.60244 6.801853 1.9531237 1.1004214 5.7657833 4.62918 9.705982 12.853899
1.6982435 6.4713593 4.10452 2.0503047 8.336045 0.2099035 8.829805 0.7849778
0.7606295 3.4220243 -2.7004454 2.32011 -1.087863 1.0796291 9.076105 8.522862
8.351586 -0.49535885 3.4214923 3.951642 0.95274407 6.0908394 0.049230188 0.424364
6.395607 6.763492 3.04998 5.468055 0.08559534 6.467925 1.6755637 0.7438452
1.6265036 1.4092449 6.5847464 7.499608 -12.974965 -7.577488 2.3244724 7.969754
9.264099 1.0011392 1.3450757 6.2337513 0.15303764 2.4990623 1.2058254 10.8094015
1.1672595 -0.40139255 0.04713902 -0.26928505 2.8817043 -0.85536265 8.2531595 2.6629548
6.678657 1.6154486 2.5248725 0.29277945 14.36721 5.257453 8.740576 2.376425
5.9563193 -0.5673444 0.10557139 1.0815258 -1.1852912 8.4528475 1.0499755 -0.55556744
4.9527493 7.7312675 -44.094353 6.336799 1.2196107 -0.51559293 2.0825188 4.844253
00000000: a48a 2740 3812 8f40 2c67 5d41 3790 4640
00000010: 36d7 d43e a621 d840 fe7b 1240 1736 443e
00000020: 6e58 13c0 4651 2240 75aa f03f a6c9 2a41
00000030: c968 c93e ea67 9c40 0937 973f d87b 80c0
00000040: 0615 b33f 3e7b 893f 690f 1341 b436 9bbf
00000050: 057a dec0 e8e7 18be 16e3 f23f cacc c63f
00000060: f7d1 8340 a0d7 2f41 a2ed 0240 089a 6640
00000070: fe07 e23f b1c7 d240 baaf 0a40 fa43 94bf
00000080: ae43 283f 06a1 49be 2cbb 7cbf f97c 3d40
00000090: c8fb fb3d acc3 8fbd 735e 8240 4b25 8f41
000000a0: 8239 1abf c8a8 d940 f5ff f93f 9cda 8c3f
000000b0: 4c81 b840 3e22 9440 b44b 1b41 92a9 4d41
000000c0: 0b60 d93f 6015 cf40 3a58 8340 3138 0340
000000d0: 7160 0541 f1f0 563e e246 0d41 4ef4 483f
000000e0: 9db8 423f 7202 5b40 19d4 2cc0 af7c 1440
000000f0: 183f 8bbf 4931 8a3f ba37 1141 a55d 0841
00000100: 19a0 0541 ad9f fdbe bbf9 5a40 b4e7 7c40
00000110: 09e7 733f 28e8 c240 98a5 493d 3d46 d93e
00000120: d0a8 cc40 876e d840 df32 4340 4efa ae40
00000130: 9c4c af3d 3ef9 ce40 df78 d63f a46c 3e3f
00000140: 4531 d03f 2362 b43f 3eb6 d240 cafc ef40
00000150: 7599 4fc1 c87a f2c0 28c4 1440 3a08 ff40
00000160: c039 1441 5425 803f 712b ac3f e47a c740
00000170: e6b5 1c3e a3f0 1f40 7d58 9a3f 4ff3 2c41
00000180: c268 953f 5383 cdbe d814 413d bbdf 89be
00000190: d86d 3840 0cf9 5abf f10c 0441 da6d 2a40
000001a0: 8fb7 d540 05c7 ce3f 8397 2140 30e7 953e
000001b0: 18e0 6541 0e3d a840 66d9 0b41 5917 1840
000001c0: 2b9a be40 7c3d 11bf d035 d83d 706f 8a3f
000001d0: 9fb7 97bf dd3e 0741 9965 863f ab39 0ebf
000001e0: ec7c 9e40 8b66 f740 9e60 30c2 0fc7 ca40
000001f0: 341c 9c3f e6fd 03bf fd47 0540 1f04 9b40
